…
I0326 23:35:57.511584 13449 solver.cpp:91] Creating training net from net file: train_val_shuf.prototxt
I0326 23:35:57.512969 13449 net.cpp:313] The NetState phase (0) differed from the phase (1) specified by a rule in layer pair_data
I0326 23:35:57.513396 13449 net.cpp:49] Initializing net from parameters: 
name: "AlexNet"
state {
  phase: TRAIN
}
layer {
  name: "pair_data"
  type: "Data"
  top: "pair_data"
  top: "sim"
  include {
    phase: TRAIN
  }
  transform_param {
    scale: 0.00390625
  }
  data_param {
    source: "lmdb_reid_train_shuf"
    batch_size: 256
    backend: LMDB
  }
}
layer {
  name: "slice_pair"
  type: "Slice"
  bottom: "pair_data"
  top: "data"
  top: "data_p"
  slice_param {
    slice_dim: 1
    slice_point: 3
  }
}
layer {
  name: "conv1"
  type: "Convolution"
  bottom: "data"
  top: "conv1"
  param {
    name: "conv1"
    lr_mult: 1
    decay_mult: 1
  }
  param {
    name: "conv1_b"
    lr_mult: 2
    decay_mult: 0
  }
  convolution_param {
    num_output: 96
    kernel_size: 11
    stride: 4
    weight_filler {
      type: "gaussian"
      std: 0.01
    }
    bias_filler {
      type: "constant"
      value: 0
    }
  }
}
layer {
  name: "relu1"
  type: "ReLU"
  bottom: "conv1"
  top: "conv1"
}
layer {
  name: "norm1"
  type: "LRN"
  bottom: "conv1"
  top: "norm1"
  lrn_param {
    local_size: 5
    alpha: 0.0001
    beta: 0.75
  }
}
layer {
  name: "pool1"
  type: "Pooling"
  bottom: "norm1"
  top: "pool1"
  pooling_param {
    pool: MAX
    kernel_size: 3
    stride: 2
  }
}
layer {
  name: "conv2"
  type: "Convolution"
  bottom: "pool1"
  top: "conv2"
  param {
    name: "conv2"
    lr_mult: 1
    decay_mult: 1
  }
  param {
    name: "conv2_b"
    lr_mult: 2
    decay_mult: 0
  }
  convolution_param {
    num_output: 256
    pad: 2
    kernel_size: 5
    group: 2
    weight_filler {
      type: "gaussian"
      std: 0.01
    }
    bias_filler {
      type: "constant"
      value: 0.1
    }
  }
}
layer {
  name: "relu2"
  type: "ReLU"
  bottom: "conv2"
  top: "conv2"
}
layer {
  name: "norm2"
  type: "LRN"
  bottom: "conv2"
  top: "norm2"
  lrn_param {
    local_size: 5
    alpha: 0.0001
    beta: 0.75
  }
}
layer {
  name: "pool2"
  type: "Pooling"
  bottom: "norm2"
  top: "pool2"
  pooling_param {
    pool: MAX
    kernel_size: 3
    stride: 2
  }
}
layer {
  name: "conv3"
  type: "Convolution"
  bottom: "pool2"
  top: "conv3"
  param {
    name: "conv3"
    lr_mult: 1
    decay_mult: 1
  }
  param {
    name: "conv3_b"
    lr_mult: 2
    decay_mult: 0
  }
  convolution_param {
    num_output: 384
    pad: 1
    kernel_size: 3
    weight_filler {
      type: "gaussian"
      std: 0.01
    }
    bias_filler {
      type: "constant"
      value: 0
    }
  }
}
layer {
  name: "relu3"
  type: "ReLU"
  bottom: "conv3"
  top: "conv3"
}
layer {
  name: "conv4"
  type: "Convolution"
  bottom: "conv3"
  top: "conv4"
  param {
    name: "conv4"
    lr_mult: 1
    decay_mult: 1
  }
  param {
    name: "conv4_b"
    lr_mult: 2
    decay_mult: 0
  }
  convolution_param {
    num_output: 384
    pad: 1
    kernel_size: 3
    group: 2
    weight_filler {
      type: "gaussian"
      std: 0.01
    }
    bias_filler {
      type: "constant"
      value: 0.1
    }
  }
}
layer {
  name: "relu4"
  type: "ReLU"
  bottom: "conv4"
  top: "conv4"
}
layer {
  name: "conv5"
  type: "Convolution"
  bottom: "conv4"
  top: "conv5"
  param {
    name: "conv5"
    lr_mult: 1
    decay_mult: 1
  }
  param {
    name: "conv5_b"
    lr_mult: 2
    decay_mult: 0
  }
  convolution_param {
    num_output: 256
    pad: 1
    kernel_size: 3
    group: 2
    weight_filler {
      type: "gaussian"
      std: 0.01
    }
    bias_filler {
      type: "constant"
      value: 0.1
    }
  }
}
layer {
  name: "relu5"
  type: "ReLU"
  bottom: "conv5"
  top: "conv5"
}
layer {
  name: "pool5"
  type: "Pooling"
  bottom: "conv5"
  top: "pool5"
  pooling_param {
    pool: MAX
    kernel_size: 3
    stride: 2
  }
}
layer {
  name: "ip6"
  type: "InnerProduct"
  bottom: "pool5"
  top: "ip6"
  param {
    name: "ip6"
    lr_mult: 1
    decay_mult: 1
  }
  param {
    name: "ip6_b"
    lr_mult: 2
    decay_mult: 0
  }
  inner_product_param {
    num_output: 2048
    weight_filler {
      type: "gaussian"
      std: 0.005
    }
    bias_filler {
      type: "constant"
      value: 0.1
    }
  }
}
layer {
  name: "relu6"
  type: "ReLU"
  bottom: "ip6"
  top: "ip6"
}
layer {
  name: "drop6"
  type: "Dropout"
  bottom: "ip6"
  top: "ip6"
  dropout_param {
    dropout_ratio: 0.5
  }
}
layer {
  name: "ip7"
  type: "InnerProduct"
  bottom: "ip6"
  top: "ip7"
  param {
    name: "ip7"
    lr_mult: 1
    decay_mult: 1
  }
  param {
    name: "ip7_b"
    lr_mult: 2
    decay_mult: 0
  }
  inner_product_param {
    num_output: 1024
    weight_filler {
      type: "gaussian"
      std: 0.005
    }
    bias_filler {
      type: "constant"
      value: 0.1
    }
  }
}
layer {
  name: "relu7"
  type: "ReLU"
  bottom: "ip7"
  top: "ip7"
}
layer {
  name: "drop7"
  type: "Dropout"
  bottom: "ip7"
  top: "ip7"
  dropout_param {
    dropout_ratio: 0.5
  }
}
layer {
  name: "ip8"
  type: "InnerProduct"
  bottom: "ip7"
  top: "feat"
  param {
    name: "ip8"
    lr_mult: 1
    decay_mult: 1
  }
  param {
    name: "ip8_b"
    lr_mult: 2
    decay_mult: 0
  }
  inner_product_param {
    num_output: 512
    weight_filler {
      type: "gaussian"
      std: 0.01
    }
    bias_filler {
      type: "constant"
      value: 0
    }
  }
}
layer {
  name: "conv1_p"
  type: "Convolution"
  bottom: "data_p"
  top: "conv1_p"
  param {
    name: "conv1"
    lr_mult: 1
    decay_mult: 1
  }
  param {
    name: "conv1_b"
    lr_mult: 2
    decay_mult: 0
  }
  convolution_param {
    num_output: 96
    kernel_size: 11
    stride: 4
    weight_filler {
      type: "gaussian"
      std: 0.01
    }
    bias_filler {
      type: "constant"
      value: 0
    }
  }
}
layer {
  name: "relu1_p"
  type: "ReLU"
  bottom: "conv1_p"
  top: "conv1_p"
}
layer {
  name: "norm1_p"
  type: "LRN"
  bottom: "conv1_p"
  top: "norm1_p"
  lrn_param {
    local_size: 5
    alpha: 0.0001
    beta: 0.75
  }
}
layer {
  name: "pool1_p"
  type: "Pooling"
  bottom: "norm1_p"
  top: "pool1_p"
  pooling_param {
    pool: MAX
    kernel_size: 3
    stride: 2
  }
}
layer {
  name: "conv2_p"
  type: "Convolution"
  bottom: "pool1_p"
  top: "conv2_p"
  param {
    name: "conv2"
    lr_mult: 1
    decay_mult: 1
  }
  param {
    name: "conv2_b"
    lr_mult: 2
    decay_mult: 0
  }
  convolution_param {
    num_output: 256
    pad: 2
    kernel_size: 5
    group: 2
    weight_filler {
      type: "gaussian"
      std: 0.01
    }
    bias_filler {
      type: "constant"
      value: 0.1
    }
  }
}
layer {
  name: "relu2_p"
  type: "ReLU"
  bottom: "conv2_p"
  top: "conv2_p"
}
layer {
  name: "norm2_p"
  type: "LRN"
  bottom: "conv2_p"
  top: "norm2_p"
  lrn_param {
    local_size: 5
    alpha: 0.0001
    beta: 0.75
  }
}
layer {
  name: "pool2_p"
  type: "Pooling"
  bottom: "norm2_p"
  top: "pool2_p"
  pooling_param {
    pool: MAX
    kernel_size: 3
    stride: 2
  }
}
layer {
  name: "conv3_p"
  type: "Convolution"
  bottom: "pool2_p"
  top: "conv3_p"
  param {
    name: "conv3"
    lr_mult: 1
    decay_mult: 1
  }
  param {
    name: "conv3_b"
    lr_mult: 2
    decay_mult: 0
  }
  convolution_param {
    num_output: 384
    pad: 1
    kernel_size: 3
    weight_filler {
      type: "gaussian"
      std: 0.01
    }
    bias_filler {
      type: "constant"
      value: 0
    }
  }
}
layer {
  name: "relu3_p"
  type: "ReLU"
  bottom: "conv3_p"
  top: "conv3_p"
}
layer {
  name: "conv4_p"
  type: "Convolution"
  bottom: "conv3_p"
  top: "conv4_p"
  param {
    name: "conv4"
    lr_mult: 1
    decay_mult: 1
  }
  param {
    name: "conv4_b"
    lr_mult: 2
    decay_mult: 0
  }
  convolution_param {
    num_output: 384
    pad: 1
    kernel_size: 3
    group: 2
    weight_filler {
      type: "gaussian"
      std: 0.01
    }
    bias_filler {
      type: "constant"
      value: 0.1
    }
  }
}
layer {
  name: "relu4_p"
  type: "ReLU"
  bottom: "conv4_p"
  top: "conv4_p"
}
layer {
  name: "conv5_p"
  type: "Convolution"
  bottom: "conv4_p"
  top: "conv5_p"
  param {
    name: "conv5"
    lr_mult: 1
    decay_mult: 1
  }
  param {
    name: "conv5_b"
    lr_mult: 2
    decay_mult: 0
  }
  convolution_param {
    num_output: 256
    pad: 1
    kernel_size: 3
    group: 2
    weight_filler {
      type: "gaussian"
      std: 0.01
    }
    bias_filler {
      type: "constant"
      value: 0.1
    }
  }
}
layer {
  name: "relu5_p"
  type: "ReLU"
  bottom: "conv5_p"
  top: "conv5_p"
}
layer {
  name: "pool5_p"
  type: "Pooling"
  bottom: "conv5_p"
  top: "pool5_p"
  pooling_param {
    pool: MAX
    kernel_size: 3
    stride: 2
  }
}
layer {
  name: "ip6_p"
  type: "InnerProduct"
  bottom: "pool5_p"
  top: "ip6_p"
  param {
    name: "ip6"
    lr_mult: 1
    decay_mult: 1
  }
  param {
    name: "ip6_b"
    lr_mult: 2
    decay_mult: 0
  }
  inner_product_param {
    num_output: 2048
    weight_filler {
      type: "gaussian"
      std: 0.005
    }
    bias_filler {
      type: "constant"
      value: 0.1
    }
  }
}
layer {
  name: "relu6_p"
  type: "ReLU"
  bottom: "ip6_p"
  top: "ip6_p"
}
layer {
  name: "drop6_p"
  type: "Dropout"
  bottom: "ip6_p"
  top: "ip6_p"
  dropout_param {
    dropout_ratio: 0.5
  }
}
layer {
  name: "ip7_p"
  type: "InnerProduct"
  bottom: "ip6_p"
  top: "ip7_p"
  param {
    name: "ip7"
    lr_mult: 1
    decay_mult: 1
  }
  param {
    name: "ip7_b"
    lr_mult: 2
    decay_mult: 0
  }
  inner_product_param {
    num_output: 1024
    weight_filler {
      type: "gaussian"
      std: 0.005
    }
    bias_filler {
      type: "constant"
      value: 0.1
    }
  }
}
layer {
  name: "relu7_p"
  type: "ReLU"
  bottom: "ip7_p"
  top: "ip7_p"
}
layer {
  name: "drop7_p"
  type: "Dropout"
  bottom: "ip7_p"
  top: "ip7_p"
  dropout_param {
    dropout_ratio: 0.5
  }
}
layer {
  name: "ip8_p"
  type: "InnerProduct"
  bottom: "ip7_p"
  top: "feat_p"
  param {
    name: "ip8"
    lr_mult: 1
    decay_mult: 1
  }
  param {
    name: "ip8_b"
    lr_mult: 2
    decay_mult: 0
  }
  inner_product_param {
    num_output: 512
    weight_filler {
      type: "gaussian"
      std: 0.01
    }
    bias_filler {
      type: "constant"
      value: 0
    }
  }
}
layer {
  name: "loss"
  type: "ContrastiveLoss"
  bottom: "feat"
  bottom: "feat_p"
  bottom: "sim"
  top: "loss"
  contrastive_loss_param {
    margin: 1
  }
}
I0326 23:35:57.513639 13449 layer_factory.hpp:77] Creating layer pair_data
I0326 23:35:57.514317 13449 net.cpp:91] Creating Layer pair_data
I0326 23:35:57.514417 13449 net.cpp:399] pair_data -> pair_data
I0326 23:35:57.514549 13449 net.cpp:399] pair_data -> sim
I0326 23:35:57.515488 13462 db_lmdb.cpp:38] Opened lmdb lmdb_reid_train_shuf
I0326 23:35:57.527382 13449 data_layer.cpp:41] output data size: 256,6,128,64
I0326 23:35:57.619454 13449 net.cpp:141] Setting up pair_data
I0326 23:35:57.619523 13449 net.cpp:148] Top shape: 256 6 128 64 (12582912)
I0326 23:35:57.619534 13449 net.cpp:148] Top shape: 256 (256)
I0326 23:35:57.619541 13449 net.cpp:156] Memory required for data: 50332672
I0326 23:35:57.619559 13449 layer_factory.hpp:77] Creating layer slice_pair
I0326 23:35:57.619586 13449 net.cpp:91] Creating Layer slice_pair
I0326 23:35:57.619599 13449 net.cpp:425] slice_pair <- pair_data
I0326 23:35:57.619626 13449 net.cpp:399] slice_pair -> data
I0326 23:35:57.619647 13449 net.cpp:399] slice_pair -> data_p
I0326 23:35:57.619717 13449 net.cpp:141] Setting up slice_pair
I0326 23:35:57.619732 13449 net.cpp:148] Top shape: 256 3 128 64 (6291456)
I0326 23:35:57.619741 13449 net.cpp:148] Top shape: 256 3 128 64 (6291456)
I0326 23:35:57.619760 13449 net.cpp:156] Memory required for data: 100664320
I0326 23:35:57.619768 13449 layer_factory.hpp:77] Creating layer conv1
I0326 23:35:57.619812 13449 net.cpp:91] Creating Layer conv1
I0326 23:35:57.619822 13449 net.cpp:425] conv1 <- data
I0326 23:35:57.619843 13449 net.cpp:399] conv1 -> conv1
I0326 23:35:57.830894 13449 net.cpp:141] Setting up conv1
I0326 23:35:57.830965 13449 net.cpp:148] Top shape: 256 96 30 14 (10321920)
I0326 23:35:57.830986 13449 net.cpp:156] Memory required for data: 141952000
I0326 23:35:57.831027 13449 layer_factory.hpp:77] Creating layer relu1
I0326 23:35:57.831050 13449 net.cpp:91] Creating Layer relu1
I0326 23:35:57.831063 13449 net.cpp:425] relu1 <- conv1
I0326 23:35:57.831075 13449 net.cpp:386] relu1 -> conv1 (in-place)
I0326 23:35:57.831377 13449 net.cpp:141] Setting up relu1
I0326 23:35:57.831394 13449 net.cpp:148] Top shape: 256 96 30 14 (10321920)
I0326 23:35:57.831403 13449 net.cpp:156] Memory required for data: 183239680
I0326 23:35:57.831411 13449 layer_factory.hpp:77] Creating layer norm1
I0326 23:35:57.831436 13449 net.cpp:91] Creating Layer norm1
I0326 23:35:57.831445 13449 net.cpp:425] norm1 <- conv1
I0326 23:35:57.831456 13449 net.cpp:399] norm1 -> norm1
I0326 23:35:57.831665 13449 net.cpp:141] Setting up norm1
I0326 23:35:57.831681 13449 net.cpp:148] Top shape: 256 96 30 14 (10321920)
I0326 23:35:57.831689 13449 net.cpp:156] Memory required for data: 224527360
I0326 23:35:57.831698 13449 layer_factory.hpp:77] Creating layer pool1
I0326 23:35:57.831715 13449 net.cpp:91] Creating Layer pool1
I0326 23:35:57.831724 13449 net.cpp:425] pool1 <- norm1
I0326 23:35:57.831735 13449 net.cpp:399] pool1 -> pool1
I0326 23:35:57.831794 13449 net.cpp:141] Setting up pool1
I0326 23:35:57.831809 13449 net.cpp:148] Top shape: 256 96 15 7 (2580480)
I0326 23:35:57.831816 13449 net.cpp:156] Memory required for data: 234849280
I0326 23:35:57.831825 13449 layer_factory.hpp:77] Creating layer conv2
I0326 23:35:57.831848 13449 net.cpp:91] Creating Layer conv2
I0326 23:35:57.831857 13449 net.cpp:425] conv2 <- pool1
I0326 23:35:57.831868 13449 net.cpp:399] conv2 -> conv2
I0326 23:35:57.843271 13449 net.cpp:141] Setting up conv2
I0326 23:35:57.843293 13449 net.cpp:148] Top shape: 256 256 15 7 (6881280)
I0326 23:35:57.843302 13449 net.cpp:156] Memory required for data: 262374400
I0326 23:35:57.843317 13449 layer_factory.hpp:77] Creating layer relu2
I0326 23:35:57.843329 13449 net.cpp:91] Creating Layer relu2
I0326 23:35:57.843338 13449 net.cpp:425] relu2 <- conv2
I0326 23:35:57.843350 13449 net.cpp:386] relu2 -> conv2 (in-place)
I0326 23:35:57.843533 13449 net.cpp:141] Setting up relu2
I0326 23:35:57.843549 13449 net.cpp:148] Top shape: 256 256 15 7 (6881280)
I0326 23:35:57.843557 13449 net.cpp:156] Memory required for data: 289899520
I0326 23:35:57.843565 13449 layer_factory.hpp:77] Creating layer norm2
I0326 23:35:57.843582 13449 net.cpp:91] Creating Layer norm2
I0326 23:35:57.843591 13449 net.cpp:425] norm2 <- conv2
I0326 23:35:57.843602 13449 net.cpp:399] norm2 -> norm2
I0326 23:35:57.843930 13449 net.cpp:141] Setting up norm2
I0326 23:35:57.843948 13449 net.cpp:148] Top shape: 256 256 15 7 (6881280)
I0326 23:35:57.843956 13449 net.cpp:156] Memory required for data: 317424640
I0326 23:35:57.843964 13449 layer_factory.hpp:77] Creating layer pool2
I0326 23:35:57.843979 13449 net.cpp:91] Creating Layer pool2
I0326 23:35:57.843989 13449 net.cpp:425] pool2 <- norm2
I0326 23:35:57.843999 13449 net.cpp:399] pool2 -> pool2
I0326 23:35:57.844048 13449 net.cpp:141] Setting up pool2
I0326 23:35:57.844063 13449 net.cpp:148] Top shape: 256 256 7 3 (1376256)
I0326 23:35:57.844070 13449 net.cpp:156] Memory required for data: 322929664
I0326 23:35:57.844079 13449 layer_factory.hpp:77] Creating layer conv3
I0326 23:35:57.844099 13449 net.cpp:91] Creating Layer conv3
I0326 23:35:57.844107 13449 net.cpp:425] conv3 <- pool2
I0326 23:35:57.844121 13449 net.cpp:399] conv3 -> conv3
I0326 23:35:57.872812 13449 net.cpp:141] Setting up conv3
I0326 23:35:57.872833 13449 net.cpp:148] Top shape: 256 384 7 3 (2064384)
I0326 23:35:57.872853 13449 net.cpp:156] Memory required for data: 331187200
I0326 23:35:57.872880 13449 layer_factory.hpp:77] Creating layer relu3
I0326 23:35:57.872896 13449 net.cpp:91] Creating Layer relu3
I0326 23:35:57.872905 13449 net.cpp:425] relu3 <- conv3
I0326 23:35:57.872915 13449 net.cpp:386] relu3 -> conv3 (in-place)
I0326 23:35:57.873105 13449 net.cpp:141] Setting up relu3
I0326 23:35:57.873121 13449 net.cpp:148] Top shape: 256 384 7 3 (2064384)
I0326 23:35:57.873129 13449 net.cpp:156] Memory required for data: 339444736
I0326 23:35:57.873138 13449 layer_factory.hpp:77] Creating layer conv4
I0326 23:35:57.873159 13449 net.cpp:91] Creating Layer conv4
I0326 23:35:57.873168 13449 net.cpp:425] conv4 <- conv3
I0326 23:35:57.873183 13449 net.cpp:399] conv4 -> conv4
I0326 23:35:57.895809 13449 net.cpp:141] Setting up conv4
I0326 23:35:57.895830 13449 net.cpp:148] Top shape: 256 384 7 3 (2064384)
I0326 23:35:57.895839 13449 net.cpp:156] Memory required for data: 347702272
I0326 23:35:57.895853 13449 layer_factory.hpp:77] Creating layer relu4
I0326 23:35:57.895865 13449 net.cpp:91] Creating Layer relu4
I0326 23:35:57.895874 13449 net.cpp:425] relu4 <- conv4
I0326 23:35:57.895886 13449 net.cpp:386] relu4 -> conv4 (in-place)
I0326 23:35:57.896075 13449 net.cpp:141] Setting up relu4
I0326 23:35:57.896092 13449 net.cpp:148] Top shape: 256 384 7 3 (2064384)
I0326 23:35:57.896100 13449 net.cpp:156] Memory required for data: 355959808
I0326 23:35:57.896109 13449 layer_factory.hpp:77] Creating layer conv5
I0326 23:35:57.896132 13449 net.cpp:91] Creating Layer conv5
I0326 23:35:57.896142 13449 net.cpp:425] conv5 <- conv4
I0326 23:35:57.896152 13449 net.cpp:399] conv5 -> conv5
I0326 23:35:57.911977 13449 net.cpp:141] Setting up conv5
I0326 23:35:57.911998 13449 net.cpp:148] Top shape: 256 256 7 3 (1376256)
I0326 23:35:57.912006 13449 net.cpp:156] Memory required for data: 361464832
I0326 23:35:57.912020 13449 layer_factory.hpp:77] Creating layer relu5
I0326 23:35:57.912036 13449 net.cpp:91] Creating Layer relu5
I0326 23:35:57.912046 13449 net.cpp:425] relu5 <- conv5
I0326 23:35:57.912055 13449 net.cpp:386] relu5 -> conv5 (in-place)
I0326 23:35:57.912238 13449 net.cpp:141] Setting up relu5
I0326 23:35:57.912255 13449 net.cpp:148] Top shape: 256 256 7 3 (1376256)
I0326 23:35:57.912262 13449 net.cpp:156] Memory required for data: 366969856
I0326 23:35:57.912271 13449 layer_factory.hpp:77] Creating layer pool5
I0326 23:35:57.912287 13449 net.cpp:91] Creating Layer pool5
I0326 23:35:57.912295 13449 net.cpp:425] pool5 <- conv5
I0326 23:35:57.912309 13449 net.cpp:399] pool5 -> pool5
I0326 23:35:57.912361 13449 net.cpp:141] Setting up pool5
I0326 23:35:57.912375 13449 net.cpp:148] Top shape: 256 256 3 1 (196608)
I0326 23:35:57.912384 13449 net.cpp:156] Memory required for data: 367756288
I0326 23:35:57.912391 13449 layer_factory.hpp:77] Creating layer ip6
I0326 23:35:57.912413 13449 net.cpp:91] Creating Layer ip6
I0326 23:35:57.912423 13449 net.cpp:425] ip6 <- pool5
I0326 23:35:57.912436 13449 net.cpp:399] ip6 -> ip6
I0326 23:35:57.962159 13449 net.cpp:141] Setting up ip6
I0326 23:35:57.962180 13449 net.cpp:148] Top shape: 256 2048 (524288)
I0326 23:35:57.962189 13449 net.cpp:156] Memory required for data: 369853440
I0326 23:35:57.962200 13449 layer_factory.hpp:77] Creating layer relu6
I0326 23:35:57.962213 13449 net.cpp:91] Creating Layer relu6
I0326 23:35:57.962220 13449 net.cpp:425] relu6 <- ip6
I0326 23:35:57.962234 13449 net.cpp:386] relu6 -> ip6 (in-place)
I0326 23:35:57.962553 13449 net.cpp:141] Setting up relu6
I0326 23:35:57.962573 13449 net.cpp:148] Top shape: 256 2048 (524288)
I0326 23:35:57.962581 13449 net.cpp:156] Memory required for data: 371950592
I0326 23:35:57.962589 13449 layer_factory.hpp:77] Creating layer drop6
I0326 23:35:57.962602 13449 net.cpp:91] Creating Layer drop6
I0326 23:35:57.962610 13449 net.cpp:425] drop6 <- ip6
I0326 23:35:57.962623 13449 net.cpp:386] drop6 -> ip6 (in-place)
I0326 23:35:57.962661 13449 net.cpp:141] Setting up drop6
I0326 23:35:57.962677 13449 net.cpp:148] Top shape: 256 2048 (524288)
I0326 23:35:57.962689 13449 net.cpp:156] Memory required for data: 374047744
I0326 23:35:57.962705 13449 layer_factory.hpp:77] Creating layer ip7
I0326 23:35:57.962723 13449 net.cpp:91] Creating Layer ip7
I0326 23:35:57.962731 13449 net.cpp:425] ip7 <- ip6
I0326 23:35:57.962743 13449 net.cpp:399] ip7 -> ip7
I0326 23:35:58.028049 13449 net.cpp:141] Setting up ip7
I0326 23:35:58.028070 13449 net.cpp:148] Top shape: 256 1024 (262144)
I0326 23:35:58.028079 13449 net.cpp:156] Memory required for data: 375096320
I0326 23:35:58.028090 13449 layer_factory.hpp:77] Creating layer relu7
I0326 23:35:58.028100 13449 net.cpp:91] Creating Layer relu7
I0326 23:35:58.028108 13449 net.cpp:425] relu7 <- ip7
I0326 23:35:58.028118 13449 net.cpp:386] relu7 -> ip7 (in-place)
I0326 23:35:58.028421 13449 net.cpp:141] Setting up relu7
I0326 23:35:58.028439 13449 net.cpp:148] Top shape: 256 1024 (262144)
I0326 23:35:58.028447 13449 net.cpp:156] Memory required for data: 376144896
I0326 23:35:58.028456 13449 layer_factory.hpp:77] Creating layer drop7
I0326 23:35:58.028467 13449 net.cpp:91] Creating Layer drop7
I0326 23:35:58.028475 13449 net.cpp:425] drop7 <- ip7
I0326 23:35:58.028489 13449 net.cpp:386] drop7 -> ip7 (in-place)
I0326 23:35:58.028520 13449 net.cpp:141] Setting up drop7
I0326 23:35:58.028534 13449 net.cpp:148] Top shape: 256 1024 (262144)
I0326 23:35:58.028542 13449 net.cpp:156] Memory required for data: 377193472
I0326 23:35:58.028549 13449 layer_factory.hpp:77] Creating layer ip8
I0326 23:35:58.028564 13449 net.cpp:91] Creating Layer ip8
I0326 23:35:58.028573 13449 net.cpp:425] ip8 <- ip7
I0326 23:35:58.028584 13449 net.cpp:399] ip8 -> feat
I0326 23:35:58.045105 13449 net.cpp:141] Setting up ip8
I0326 23:35:58.045125 13449 net.cpp:148] Top shape: 256 512 (131072)
I0326 23:35:58.045135 13449 net.cpp:156] Memory required for data: 377717760
I0326 23:35:58.045145 13449 layer_factory.hpp:77] Creating layer conv1_p
I0326 23:35:58.045169 13449 net.cpp:91] Creating Layer conv1_p
I0326 23:35:58.045179 13449 net.cpp:425] conv1_p <- data_p
I0326 23:35:58.045192 13449 net.cpp:399] conv1_p -> conv1_p
I0326 23:35:58.047212 13449 net.cpp:141] Setting up conv1_p
I0326 23:35:58.047233 13449 net.cpp:148] Top shape: 256 96 30 14 (10321920)
I0326 23:35:58.047242 13449 net.cpp:156] Memory required for data: 419005440
I0326 23:35:58.047255 13449 net.cpp:485] Sharing parameters 'conv1' owned by layer 'conv1', param index 0
I0326 23:35:58.047265 13449 net.cpp:485] Sharing parameters 'conv1_b' owned by layer 'conv1', param index 1
I0326 23:35:58.047272 13449 layer_factory.hpp:77] Creating layer relu1_p
I0326 23:35:58.047286 13449 net.cpp:91] Creating Layer relu1_p
I0326 23:35:58.047296 13449 net.cpp:425] relu1_p <- conv1_p
I0326 23:35:58.047305 13449 net.cpp:386] relu1_p -> conv1_p (in-place)
I0326 23:35:58.047605 13449 net.cpp:141] Setting up relu1_p
I0326 23:35:58.047623 13449 net.cpp:148] Top shape: 256 96 30 14 (10321920)
I0326 23:35:58.047631 13449 net.cpp:156] Memory required for data: 460293120
I0326 23:35:58.047641 13449 layer_factory.hpp:77] Creating layer norm1_p
I0326 23:35:58.047655 13449 net.cpp:91] Creating Layer norm1_p
I0326 23:35:58.047664 13449 net.cpp:425] norm1_p <- conv1_p
I0326 23:35:58.047678 13449 net.cpp:399] norm1_p -> norm1_p
I0326 23:35:58.047894 13449 net.cpp:141] Setting up norm1_p
I0326 23:35:58.047910 13449 net.cpp:148] Top shape: 256 96 30 14 (10321920)
I0326 23:35:58.047919 13449 net.cpp:156] Memory required for data: 501580800
I0326 23:35:58.047926 13449 layer_factory.hpp:77] Creating layer pool1_p
I0326 23:35:58.047941 13449 net.cpp:91] Creating Layer pool1_p
I0326 23:35:58.047950 13449 net.cpp:425] pool1_p <- norm1_p
I0326 23:35:58.047960 13449 net.cpp:399] pool1_p -> pool1_p
I0326 23:35:58.048010 13449 net.cpp:141] Setting up pool1_p
I0326 23:35:58.048025 13449 net.cpp:148] Top shape: 256 96 15 7 (2580480)
I0326 23:35:58.048032 13449 net.cpp:156] Memory required for data: 511902720
I0326 23:35:58.048040 13449 layer_factory.hpp:77] Creating layer conv2_p
I0326 23:35:58.048059 13449 net.cpp:91] Creating Layer conv2_p
I0326 23:35:58.048074 13449 net.cpp:425] conv2_p <- pool1_p
I0326 23:35:58.048089 13449 net.cpp:399] conv2_p -> conv2_p
I0326 23:35:58.059559 13449 net.cpp:141] Setting up conv2_p
I0326 23:35:58.059581 13449 net.cpp:148] Top shape: 256 256 15 7 (6881280)
I0326 23:35:58.059589 13449 net.cpp:156] Memory required for data: 539427840
I0326 23:35:58.059598 13449 net.cpp:485] Sharing parameters 'conv2' owned by layer 'conv2', param index 0
I0326 23:35:58.059608 13449 net.cpp:485] Sharing parameters 'conv2_b' owned by layer 'conv2', param index 1
I0326 23:35:58.059617 13449 layer_factory.hpp:77] Creating layer relu2_p
I0326 23:35:58.059629 13449 net.cpp:91] Creating Layer relu2_p
I0326 23:35:58.059638 13449 net.cpp:425] relu2_p <- conv2_p
I0326 23:35:58.059648 13449 net.cpp:386] relu2_p -> conv2_p (in-place)
I0326 23:35:58.059957 13449 net.cpp:141] Setting up relu2_p
I0326 23:35:58.059975 13449 net.cpp:148] Top shape: 256 256 15 7 (6881280)
I0326 23:35:58.059983 13449 net.cpp:156] Memory required for data: 566952960
I0326 23:35:58.059991 13449 layer_factory.hpp:77] Creating layer norm2_p
I0326 23:35:58.060003 13449 net.cpp:91] Creating Layer norm2_p
I0326 23:35:58.060012 13449 net.cpp:425] norm2_p <- conv2_p
I0326 23:35:58.060025 13449 net.cpp:399] norm2_p -> norm2_p
I0326 23:35:58.060242 13449 net.cpp:141] Setting up norm2_p
I0326 23:35:58.060261 13449 net.cpp:148] Top shape: 256 256 15 7 (6881280)
I0326 23:35:58.060269 13449 net.cpp:156] Memory required for data: 594478080
I0326 23:35:58.060277 13449 layer_factory.hpp:77] Creating layer pool2_p
I0326 23:35:58.060288 13449 net.cpp:91] Creating Layer pool2_p
I0326 23:35:58.060297 13449 net.cpp:425] pool2_p <- norm2_p
I0326 23:35:58.060307 13449 net.cpp:399] pool2_p -> pool2_p
I0326 23:35:58.060358 13449 net.cpp:141] Setting up pool2_p
I0326 23:35:58.060372 13449 net.cpp:148] Top shape: 256 256 7 3 (1376256)
I0326 23:35:58.060379 13449 net.cpp:156] Memory required for data: 599983104
I0326 23:35:58.060387 13449 layer_factory.hpp:77] Creating layer conv3_p
I0326 23:35:58.060411 13449 net.cpp:91] Creating Layer conv3_p
I0326 23:35:58.060421 13449 net.cpp:425] conv3_p <- pool2_p
I0326 23:35:58.060432 13449 net.cpp:399] conv3_p -> conv3_p
I0326 23:35:58.089067 13449 net.cpp:141] Setting up conv3_p
I0326 23:35:58.089089 13449 net.cpp:148] Top shape: 256 384 7 3 (2064384)
I0326 23:35:58.089098 13449 net.cpp:156] Memory required for data: 608240640
I0326 23:35:58.089107 13449 net.cpp:485] Sharing parameters 'conv3' owned by layer 'conv3', param index 0
I0326 23:35:58.089117 13449 net.cpp:485] Sharing parameters 'conv3_b' owned by layer 'conv3', param index 1
I0326 23:35:58.089124 13449 layer_factory.hpp:77] Creating layer relu3_p
I0326 23:35:58.089134 13449 net.cpp:91] Creating Layer relu3_p
I0326 23:35:58.089143 13449 net.cpp:425] relu3_p <- conv3_p
I0326 23:35:58.089153 13449 net.cpp:386] relu3_p -> conv3_p (in-place)
I0326 23:35:58.089340 13449 net.cpp:141] Setting up relu3_p
I0326 23:35:58.089356 13449 net.cpp:148] Top shape: 256 384 7 3 (2064384)
I0326 23:35:58.089365 13449 net.cpp:156] Memory required for data: 616498176
I0326 23:35:58.089373 13449 layer_factory.hpp:77] Creating layer conv4_p
I0326 23:35:58.089391 13449 net.cpp:91] Creating Layer conv4_p
I0326 23:35:58.089401 13449 net.cpp:425] conv4_p <- conv3_p
I0326 23:35:58.089414 13449 net.cpp:399] conv4_p -> conv4_p
I0326 23:35:58.111959 13449 net.cpp:141] Setting up conv4_p
I0326 23:35:58.111984 13449 net.cpp:148] Top shape: 256 384 7 3 (2064384)
I0326 23:35:58.111994 13449 net.cpp:156] Memory required for data: 624755712
I0326 23:35:58.112002 13449 net.cpp:485] Sharing parameters 'conv4' owned by layer 'conv4', param index 0
I0326 23:35:58.112012 13449 net.cpp:485] Sharing parameters 'conv4_b' owned by layer 'conv4', param index 1
I0326 23:35:58.112020 13449 layer_factory.hpp:77] Creating layer relu4_p
I0326 23:35:58.112030 13449 net.cpp:91] Creating Layer relu4_p
I0326 23:35:58.112038 13449 net.cpp:425] relu4_p <- conv4_p
I0326 23:35:58.112048 13449 net.cpp:386] relu4_p -> conv4_p (in-place)
I0326 23:35:58.112361 13449 net.cpp:141] Setting up relu4_p
I0326 23:35:58.112382 13449 net.cpp:148] Top shape: 256 384 7 3 (2064384)
I0326 23:35:58.112398 13449 net.cpp:156] Memory required for data: 633013248
I0326 23:35:58.112407 13449 layer_factory.hpp:77] Creating layer conv5_p
I0326 23:35:58.112426 13449 net.cpp:91] Creating Layer conv5_p
I0326 23:35:58.112435 13449 net.cpp:425] conv5_p <- conv4_p
I0326 23:35:58.112447 13449 net.cpp:399] conv5_p -> conv5_p
I0326 23:35:58.128182 13449 net.cpp:141] Setting up conv5_p
I0326 23:35:58.128204 13449 net.cpp:148] Top shape: 256 256 7 3 (1376256)
I0326 23:35:58.128213 13449 net.cpp:156] Memory required for data: 638518272
I0326 23:35:58.128222 13449 net.cpp:485] Sharing parameters 'conv5' owned by layer 'conv5', param index 0
I0326 23:35:58.128232 13449 net.cpp:485] Sharing parameters 'conv5_b' owned by layer 'conv5', param index 1
I0326 23:35:58.128240 13449 layer_factory.hpp:77] Creating layer relu5_p
I0326 23:35:58.128253 13449 net.cpp:91] Creating Layer relu5_p
I0326 23:35:58.128262 13449 net.cpp:425] relu5_p <- conv5_p
I0326 23:35:58.128273 13449 net.cpp:386] relu5_p -> conv5_p (in-place)
I0326 23:35:58.128577 13449 net.cpp:141] Setting up relu5_p
I0326 23:35:58.128595 13449 net.cpp:148] Top shape: 256 256 7 3 (1376256)
I0326 23:35:58.128603 13449 net.cpp:156] Memory required for data: 644023296
I0326 23:35:58.128612 13449 layer_factory.hpp:77] Creating layer pool5_p
I0326 23:35:58.128628 13449 net.cpp:91] Creating Layer pool5_p
I0326 23:35:58.128636 13449 net.cpp:425] pool5_p <- conv5_p
I0326 23:35:58.128648 13449 net.cpp:399] pool5_p -> pool5_p
I0326 23:35:58.128705 13449 net.cpp:141] Setting up pool5_p
I0326 23:35:58.128720 13449 net.cpp:148] Top shape: 256 256 3 1 (196608)
I0326 23:35:58.128726 13449 net.cpp:156] Memory required for data: 644809728
I0326 23:35:58.128734 13449 layer_factory.hpp:77] Creating layer ip6_p
I0326 23:35:58.128751 13449 net.cpp:91] Creating Layer ip6_p
I0326 23:35:58.128759 13449 net.cpp:425] ip6_p <- pool5_p
I0326 23:35:58.128772 13449 net.cpp:399] ip6_p -> ip6_p
I0326 23:35:58.178056 13449 net.cpp:141] Setting up ip6_p
I0326 23:35:58.178103 13449 net.cpp:148] Top shape: 256 2048 (524288)
I0326 23:35:58.178113 13449 net.cpp:156] Memory required for data: 646906880
I0326 23:35:58.178128 13449 net.cpp:485] Sharing parameters 'ip6' owned by layer 'ip6', param index 0
I0326 23:35:58.178138 13449 net.cpp:485] Sharing parameters 'ip6_b' owned by layer 'ip6', param index 1
I0326 23:35:58.178148 13449 layer_factory.hpp:77] Creating layer relu6_p
I0326 23:35:58.178164 13449 net.cpp:91] Creating Layer relu6_p
I0326 23:35:58.178172 13449 net.cpp:425] relu6_p <- ip6_p
I0326 23:35:58.178189 13449 net.cpp:386] relu6_p -> ip6_p (in-place)
I0326 23:35:58.178488 13449 net.cpp:141] Setting up relu6_p
I0326 23:35:58.178505 13449 net.cpp:148] Top shape: 256 2048 (524288)
I0326 23:35:58.178514 13449 net.cpp:156] Memory required for data: 649004032
I0326 23:35:58.178521 13449 layer_factory.hpp:77] Creating layer drop6_p
I0326 23:35:58.178534 13449 net.cpp:91] Creating Layer drop6_p
I0326 23:35:58.178542 13449 net.cpp:425] drop6_p <- ip6_p
I0326 23:35:58.178555 13449 net.cpp:386] drop6_p -> ip6_p (in-place)
I0326 23:35:58.178589 13449 net.cpp:141] Setting up drop6_p
I0326 23:35:58.178606 13449 net.cpp:148] Top shape: 256 2048 (524288)
I0326 23:35:58.178614 13449 net.cpp:156] Memory required for data: 651101184
I0326 23:35:58.178622 13449 layer_factory.hpp:77] Creating layer ip7_p
I0326 23:35:58.178637 13449 net.cpp:91] Creating Layer ip7_p
I0326 23:35:58.178645 13449 net.cpp:425] ip7_p <- ip6_p
I0326 23:35:58.178658 13449 net.cpp:399] ip7_p -> ip7_p
I0326 23:35:58.244277 13449 net.cpp:141] Setting up ip7_p
I0326 23:35:58.244323 13449 net.cpp:148] Top shape: 256 1024 (262144)
I0326 23:35:58.244333 13449 net.cpp:156] Memory required for data: 652149760
I0326 23:35:58.244348 13449 net.cpp:485] Sharing parameters 'ip7' owned by layer 'ip7', param index 0
I0326 23:35:58.244359 13449 net.cpp:485] Sharing parameters 'ip7_b' owned by layer 'ip7', param index 1
I0326 23:35:58.244367 13449 layer_factory.hpp:77] Creating layer relu7_p
I0326 23:35:58.244400 13449 net.cpp:91] Creating Layer relu7_p
I0326 23:35:58.244423 13449 net.cpp:425] relu7_p <- ip7_p
I0326 23:35:58.244439 13449 net.cpp:386] relu7_p -> ip7_p (in-place)
I0326 23:35:58.244941 13449 net.cpp:141] Setting up relu7_p
I0326 23:35:58.244959 13449 net.cpp:148] Top shape: 256 1024 (262144)
I0326 23:35:58.244967 13449 net.cpp:156] Memory required for data: 653198336
I0326 23:35:58.244976 13449 layer_factory.hpp:77] Creating layer drop7_p
I0326 23:35:58.244989 13449 net.cpp:91] Creating Layer drop7_p
I0326 23:35:58.244998 13449 net.cpp:425] drop7_p <- ip7_p
I0326 23:35:58.245010 13449 net.cpp:386] drop7_p -> ip7_p (in-place)
I0326 23:35:58.245044 13449 net.cpp:141] Setting up drop7_p
I0326 23:35:58.245057 13449 net.cpp:148] Top shape: 256 1024 (262144)
I0326 23:35:58.245064 13449 net.cpp:156] Memory required for data: 654246912
I0326 23:35:58.245072 13449 layer_factory.hpp:77] Creating layer ip8_p
I0326 23:35:58.245091 13449 net.cpp:91] Creating Layer ip8_p
I0326 23:35:58.245100 13449 net.cpp:425] ip8_p <- ip7_p
I0326 23:35:58.245111 13449 net.cpp:399] ip8_p -> feat_p
I0326 23:35:58.261759 13449 net.cpp:141] Setting up ip8_p
I0326 23:35:58.261780 13449 net.cpp:148] Top shape: 256 512 (131072)
I0326 23:35:58.261790 13449 net.cpp:156] Memory required for data: 654771200
I0326 23:35:58.261798 13449 net.cpp:485] Sharing parameters 'ip8' owned by layer 'ip8', param index 0
I0326 23:35:58.261807 13449 net.cpp:485] Sharing parameters 'ip8_b' owned by layer 'ip8', param index 1
I0326 23:35:58.261816 13449 layer_factory.hpp:77] Creating layer loss
I0326 23:35:58.261834 13449 net.cpp:91] Creating Layer loss
…
I0326 23:35:58.268218 13449 solver.cpp:181] Creating test net (#0) specified by net file: train_val_shuf.prototxt
I0326 23:35:58.268308 13449 net.cpp:313] The NetState phase (1) differed from the phase (0) specified by a rule in layer pair_data
I0326 23:35:58.268721 13449 net.cpp:49] Initializing net from parameters: 
name: "AlexNet"
state {
  phase: TEST
}
layer {
  name: "pair_data"
  type: "Data"
  top: "pair_data"
  top: "sim"
  include {
    phase: TEST
  }
  transform_param {
    scale: 0.00390625
  }
  data_param {
    source: "lmdb_reid_test_shuf"
    batch_size: 50
    backend: LMDB
  }
}
layer {
  name: "slice_pair"
  type: "Slice"
  bottom: "pair_data"
  top: "data"
  top: "data_p"
  slice_param {
    slice_dim: 1
    slice_point: 3
  }
}
layer {
  name: "conv1"
  type: "Convolution"
  bottom: "data"
  top: "conv1"
  param {
    name: "conv1"
    lr_mult: 1
    decay_mult: 1
  }
  param {
    name: "conv1_b"
    lr_mult: 2
    decay_mult: 0
  }
  convolution_param {
    num_output: 96
    kernel_size: 11
    stride: 4
    weight_filler {
      type: "gaussian"
      std: 0.01
    }
    bias_filler {
      type: "constant"
      value: 0
    }
  }
}
layer {
  name: "relu1"
  type: "ReLU"
  bottom: "conv1"
  top: "conv1"
}
layer {
  name: "norm1"
  type: "LRN"
  bottom: "conv1"
  top: "norm1"
  lrn_param {
    local_size: 5
    alpha: 0.0001
    beta: 0.75
  }
}
layer {
  name: "pool1"
  type: "Pooling"
  bottom: "norm1"
  top: "pool1"
  pooling_param {
    pool: MAX
    kernel_size: 3
    stride: 2
  }
}
layer {
  name: "conv2"
  type: "Convolution"
  bottom: "pool1"
  top: "conv2"
  param {
    name: "conv2"
    lr_mult: 1
    decay_mult: 1
  }
  param {
    name: "conv2_b"
    lr_mult: 2
    decay_mult: 0
  }
  convolution_param {
    num_output: 256
    pad: 2
    kernel_size: 5
    group: 2
    weight_filler {
      type: "gaussian"
      std: 0.01
    }
    bias_filler {
      type: "constant"
      value: 0.1
    }
  }
}
layer {
  name: "relu2"
  type: "ReLU"
  bottom: "conv2"
  top: "conv2"
}
layer {
  name: "norm2"
  type: "LRN"
  bottom: "conv2"
  top: "norm2"
  lrn_param {
    local_size: 5
    alpha: 0.0001
    beta: 0.75
  }
}
layer {
  name: "pool2"
  type: "Pooling"
  bottom: "norm2"
  top: "pool2"
  pooling_param {
    pool: MAX
    kernel_size: 3
    stride: 2
  }
}
layer {
  name: "conv3"
  type: "Convolution"
  bottom: "pool2"
  top: "conv3"
  param {
    name: "conv3"
    lr_mult: 1
    decay_mult: 1
  }
  param {
    name: "conv3_b"
    lr_mult: 2
    decay_mult: 0
  }
  convolution_param {
    num_output: 384
    pad: 1
    kernel_size: 3
    weight_filler {
      type: "gaussian"
      std: 0.01
    }
    bias_filler {
      type: "constant"
      value: 0
    }
  }
}
layer {
  name: "relu3"
  type: "ReLU"
  bottom: "conv3"
  top: "conv3"
}
layer {
  name: "conv4"
  type: "Convolution"
  bottom: "conv3"
  top: "conv4"
  param {
    name: "conv4"
    lr_mult: 1
    decay_mult: 1
  }
  param {
    name: "conv4_b"
    lr_mult: 2
    decay_mult: 0
  }
  convolution_param {
    num_output: 384
    pad: 1
    kernel_size: 3
    group: 2
    weight_filler {
      type: "gaussian"
      std: 0.01
    }
    bias_filler {
      type: "constant"
      value: 0.1
    }
  }
}
layer {
  name: "relu4"
  type: "ReLU"
  bottom: "conv4"
  top: "conv4"
}
layer {
  name: "conv5"
  type: "Convolution"
  bottom: "conv4"
  top: "conv5"
  param {
    name: "conv5"
    lr_mult: 1
    decay_mult: 1
  }
  param {
    name: "conv5_b"
    lr_mult: 2
    decay_mult: 0
  }
  convolution_param {
    num_output: 256
    pad: 1
    kernel_size: 3
    group: 2
    weight_filler {
      type: "gaussian"
      std: 0.01
    }
    bias_filler {
      type: "constant"
      value: 0.1
    }
  }
}
layer {
  name: "relu5"
  type: "ReLU"
  bottom: "conv5"
  top: "conv5"
}
layer {
  name: "pool5"
  type: "Pooling"
  bottom: "conv5"
  top: "pool5"
  pooling_param {
    pool: MAX
    kernel_size: 3
    stride: 2
  }
}
layer {
  name: "ip6"
  type: "InnerProduct"
  bottom: "pool5"
  top: "ip6"
  param {
    name: "ip6"
    lr_mult: 1
    decay_mult: 1
  }
  param {
    name: "ip6_b"
    lr_mult: 2
    decay_mult: 0
  }
  inner_product_param {
    num_output: 2048
    weight_filler {
      type: "gaussian"
      std: 0.005
    }
    bias_filler {
      type: "constant"
      value: 0.1
    }
  }
}
layer {
  name: "relu6"
  type: "ReLU"
  bottom: "ip6"
  top: "ip6"
}
layer {
  name: "drop6"
  type: "Dropout"
  bottom: "ip6"
  top: "ip6"
  dropout_param {
    dropout_ratio: 0.5
  }
}
layer {
  name: "ip7"
  type: "InnerProduct"
  bottom: "ip6"
  top: "ip7"
  param {
    name: "ip7"
    lr_mult: 1
    decay_mult: 1
  }
  param {
    name: "ip7_b"
    lr_mult: 2
    decay_mult: 0
  }
  inner_product_param {
    num_output: 1024
    weight_filler {
      type: "gaussian"
      std: 0.005
    }
    bias_filler {
      type: "constant"
      value: 0.1
    }
  }
}
layer {
  name: "relu7"
  type: "ReLU"
  bottom: "ip7"
  top: "ip7"
}
layer {
  name: "drop7"
  type: "Dropout"
  bottom: "ip7"
  top: "ip7"
  dropout_param {
    dropout_ratio: 0.5
  }
}
layer {
  name: "ip8"
  type: "InnerProduct"
  bottom: "ip7"
  top: "feat"
  param {
    name: "ip8"
    lr_mult: 1
    decay_mult: 1
  }
  param {
    name: "ip8_b"
    lr_mult: 2
    decay_mult: 0
  }
  inner_product_param {
    num_output: 512
    weight_filler {
      type: "gaussian"
      std: 0.01
    }
    bias_filler {
      type: "constant"
      value: 0
    }
  }
}
layer {
  name: "conv1_p"
  type: "Convolution"
  bottom: "data_p"
  top: "conv1_p"
  param {
    name: "conv1"
    lr_mult: 1
    decay_mult: 1
  }
  param {
    name: "conv1_b"
    lr_mult: 2
    decay_mult: 0
  }
  convolution_param {
    num_output: 96
    kernel_size: 11
    stride: 4
    weight_filler {
      type: "gaussian"
      std: 0.01
    }
    bias_filler {
      type: "constant"
      value: 0
    }
  }
}
layer {
  name: "relu1_p"
  type: "ReLU"
  bottom: "conv1_p"
  top: "conv1_p"
}
layer {
  name: "norm1_p"
  type: "LRN"
  bottom: "conv1_p"
  top: "norm1_p"
  lrn_param {
    local_size: 5
    alpha: 0.0001
    beta: 0.75
  }
}
layer {
  name: "pool1_p"
  type: "Pooling"
  bottom: "norm1_p"
  top: "pool1_p"
  pooling_param {
    pool: MAX
    kernel_size: 3
    stride: 2
  }
}
layer {
  name: "conv2_p"
  type: "Convolution"
  bottom: "pool1_p"
  top: "conv2_p"
  param {
    name: "conv2"
    lr_mult: 1
    decay_mult: 1
  }
  param {
    name: "conv2_b"
    lr_mult: 2
    decay_mult: 0
  }
  convolution_param {
    num_output: 256
    pad: 2
    kernel_size: 5
    group: 2
    weight_filler {
      type: "gaussian"
      std: 0.01
    }
    bias_filler {
      type: "constant"
      value: 0.1
    }
  }
}
layer {
  name: "relu2_p"
  type: "ReLU"
  bottom: "conv2_p"
  top: "conv2_p"
}
layer {
  name: "norm2_p"
  type: "LRN"
  bottom: "conv2_p"
  top: "norm2_p"
  lrn_param {
    local_size: 5
    alpha: 0.0001
    beta: 0.75
  }
}
layer {
  name: "pool2_p"
  type: "Pooling"
  bottom: "norm2_p"
  top: "pool2_p"
  pooling_param {
    pool: MAX
    kernel_size: 3
    stride: 2
  }
}
layer {
  name: "conv3_p"
  type: "Convolution"
  bottom: "pool2_p"
  top: "conv3_p"
  param {
    name: "conv3"
    lr_mult: 1
    decay_mult: 1
  }
  param {
    name: "conv3_b"
    lr_mult: 2
    decay_mult: 0
  }
  convolution_param {
    num_output: 384
    pad: 1
    kernel_size: 3
    weight_filler {
      type: "gaussian"
      std: 0.01
    }
    bias_filler {
      type: "constant"
      value: 0
    }
  }
}
layer {
  name: "relu3_p"
  type: "ReLU"
  bottom: "conv3_p"
  top: "conv3_p"
}
layer {
  name: "conv4_p"
  type: "Convolution"
  bottom: "conv3_p"
  top: "conv4_p"
  param {
    name: "conv4"
    lr_mult: 1
    decay_mult: 1
  }
  param {
    name: "conv4_b"
    lr_mult: 2
    decay_mult: 0
  }
  convolution_param {
    num_output: 384
    pad: 1
    kernel_size: 3
    group: 2
    weight_filler {
      type: "gaussian"
      std: 0.01
    }
    bias_filler {
      type: "constant"
      value: 0.1
    }
  }
}
layer {
  name: "relu4_p"
  type: "ReLU"
  bottom: "conv4_p"
  top: "conv4_p"
}
layer {
  name: "conv5_p"
  type: "Convolution"
  bottom: "conv4_p"
  top: "conv5_p"
  param {
    name: "conv5"
    lr_mult: 1
    decay_mult: 1
  }
  param {
    name: "conv5_b"
    lr_mult: 2
    decay_mult: 0
  }
  convolution_param {
    num_output: 256
    pad: 1
    kernel_size: 3
    group: 2
    weight_filler {
      type: "gaussian"
      std: 0.01
    }
    bias_filler {
      type: "constant"
      value: 0.1
    }
  }
}
layer {
  name: "relu5_p"
  type: "ReLU"
  bottom: "conv5_p"
  top: "conv5_p"
}
layer {
  name: "pool5_p"
  type: "Pooling"
  bottom: "conv5_p"
  top: "pool5_p"
  pooling_param {
    pool: MAX
    kernel_size: 3
    stride: 2
  }
}
layer {
  name: "ip6_p"
  type: "InnerProduct"
  bottom: "pool5_p"
  top: "ip6_p"
  param {
    name: "ip6"
    lr_mult: 1
    decay_mult: 1
  }
  param {
    name: "ip6_b"
    lr_mult: 2
    decay_mult: 0
  }
  inner_product_param {
    num_output: 2048
    weight_filler {
      type: "gaussian"
      std: 0.005
    }
    bias_filler {
      type: "constant"
      value: 0.1
    }
  }
}
layer {
  name: "relu6_p"
  type: "ReLU"
  bottom: "ip6_p"
  top: "ip6_p"
}
layer {
  name: "drop6_p"
  type: "Dropout"
  bottom: "ip6_p"
  top: "ip6_p"
  dropout_param {
    dropout_ratio: 0.5
  }
}
layer {
  name: "ip7_p"
  type: "InnerProduct"
  bottom: "ip6_p"
  top: "ip7_p"
  param {
    name: "ip7"
    lr_mult: 1
    decay_mult: 1
  }
  param {
    name: "ip7_b"
    lr_mult: 2
    decay_mult: 0
  }
  inner_product_param {
    num_output: 1024
    weight_filler {
      type: "gaussian"
      std: 0.005
    }
    bias_filler {
      type: "constant"
      value: 0.1
    }
  }
}
layer {
  name: "relu7_p"
  type: "ReLU"
  bottom: "ip7_p"
  top: "ip7_p"
}
layer {
  name: "drop7_p"
  type: "Dropout"
  bottom: "ip7_p"
  top: "ip7_p"
  dropout_param {
    dropout_ratio: 0.5
  }
}
layer {
  name: "ip8_p"
  type: "InnerProduct"
  bottom: "ip7_p"
  top: "feat_p"
  param {
    name: "ip8"
    lr_mult: 1
    decay_mult: 1
  }
  param {
    name: "ip8_b"
    lr_mult: 2
    decay_mult: 0
  }
  inner_product_param {
    num_output: 512
    weight_filler {
      type: "gaussian"
      std: 0.01
    }
    bias_filler {
      type: "constant"
      value: 0
    }
  }
}
layer {
  name: "loss"
  type: "ContrastiveLoss"
  bottom: "feat"
  bottom: "feat_p"
  bottom: "sim"
  top: "loss"
  contrastive_loss_param {
    margin: 1
  }
}
I0326 23:35:58.268908 13449 layer_factory.hpp:77] Creating layer pair_data
I0326 23:35:58.269026 13449 net.cpp:91] Creating Layer pair_data
I0326 23:35:58.269042 13449 net.cpp:399] pair_data -> pair_data
I0326 23:35:58.269058 13449 net.cpp:399] pair_data -> sim
I0326 23:35:58.271349 13473 db_lmdb.cpp:38] Opened lmdb lmdb_reid_test_shuf
I0326 23:35:58.271852 13449 data_layer.cpp:41] output data size: 50,6,128,64
I0326 23:35:58.289852 13449 net.cpp:141] Setting up pair_data
I0326 23:35:58.289909 13449 net.cpp:148] Top shape: 50 6 128 64 (2457600)
I0326 23:35:58.289921 13449 net.cpp:148] Top shape: 50 (50)
I0326 23:35:58.289928 13449 net.cpp:156] Memory required for data: 9830600
I0326 23:35:58.289942 13449 layer_factory.hpp:77] Creating layer slice_pair
I0326 23:35:58.289968 13449 net.cpp:91] Creating Layer slice_pair
I0326 23:35:58.289976 13449 net.cpp:425] slice_pair <- pair_data
I0326 23:35:58.289994 13449 net.cpp:399] slice_pair -> data
I0326 23:35:58.290011 13449 net.cpp:399] slice_pair -> data_p
I0326 23:35:58.290179 13449 net.cpp:141] Setting up slice_pair
I0326 23:35:58.290196 13449 net.cpp:148] Top shape: 50 3 128 64 (1228800)
I0326 23:35:58.290205 13449 net.cpp:148] Top shape: 50 3 128 64 (1228800)
I0326 23:35:58.290212 13449 net.cpp:156] Memory required for data: 19661000
I0326 23:35:58.290220 13449 layer_factory.hpp:77] Creating layer conv1
I0326 23:35:58.290248 13449 net.cpp:91] Creating Layer conv1
I0326 23:35:58.290258 13449 net.cpp:425] conv1 <- data
I0326 23:35:58.290272 13449 net.cpp:399] conv1 -> conv1
I0326 23:35:58.293722 13449 net.cpp:141] Setting up conv1
I0326 23:35:58.293752 13449 net.cpp:148] Top shape: 50 96 30 14 (2016000)
I0326 23:35:58.293761 13449 net.cpp:156] Memory required for data: 27725000
I0326 23:35:58.293783 13449 layer_factory.hpp:77] Creating layer relu1
I0326 23:35:58.293797 13449 net.cpp:91] Creating Layer relu1
I0326 23:35:58.293807 13449 net.cpp:425] relu1 <- conv1
I0326 23:35:58.293818 13449 net.cpp:386] relu1 -> conv1 (in-place)
I0326 23:35:58.294023 13449 net.cpp:141] Setting up relu1
I0326 23:35:58.294039 13449 net.cpp:148] Top shape: 50 96 30 14 (2016000)
I0326 23:35:58.294047 13449 net.cpp:156] Memory required for data: 35789000
I0326 23:35:58.294055 13449 layer_factory.hpp:77] Creating layer norm1
I0326 23:35:58.294075 13449 net.cpp:91] Creating Layer norm1
I0326 23:35:58.294085 13449 net.cpp:425] norm1 <- conv1
I0326 23:35:58.294098 13449 net.cpp:399] norm1 -> norm1
I0326 23:35:58.294492 13449 net.cpp:141] Setting up norm1
I0326 23:35:58.294513 13449 net.cpp:148] Top shape: 50 96 30 14 (2016000)
I0326 23:35:58.294523 13449 net.cpp:156] Memory required for data: 43853000
I0326 23:35:58.294530 13449 layer_factory.hpp:77] Creating layer pool1
I0326 23:35:58.294543 13449 net.cpp:91] Creating Layer pool1
I0326 23:35:58.294551 13449 net.cpp:425] pool1 <- norm1
I0326 23:35:58.294564 13449 net.cpp:399] pool1 -> pool1
I0326 23:35:58.294620 13449 net.cpp:141] Setting up pool1
I0326 23:35:58.294636 13449 net.cpp:148] Top shape: 50 96 15 7 (504000)
I0326 23:35:58.294643 13449 net.cpp:156] Memory required for data: 45869000
I0326 23:35:58.294651 13449 layer_factory.hpp:77] Creating layer conv2
I0326 23:35:58.294670 13449 net.cpp:91] Creating Layer conv2
I0326 23:35:58.294678 13449 net.cpp:425] conv2 <- pool1
I0326 23:35:58.294697 13449 net.cpp:399] conv2 -> conv2
I0326 23:35:58.307124 13449 net.cpp:141] Setting up conv2
I0326 23:35:58.307148 13449 net.cpp:148] Top shape: 50 256 15 7 (1344000)
I0326 23:35:58.307157 13449 net.cpp:156] Memory required for data: 51245000
I0326 23:35:58.307171 13449 layer_factory.hpp:77] Creating layer relu2
I0326 23:35:58.307184 13449 net.cpp:91] Creating Layer relu2
I0326 23:35:58.307193 13449 net.cpp:425] relu2 <- conv2
I0326 23:35:58.307205 13449 net.cpp:386] relu2 -> conv2 (in-place)
I0326 23:35:58.307541 13449 net.cpp:141] Setting up relu2
I0326 23:35:58.307560 13449 net.cpp:148] Top shape: 50 256 15 7 (1344000)
I0326 23:35:58.307569 13449 net.cpp:156] Memory required for data: 56621000
I0326 23:35:58.307590 13449 layer_factory.hpp:77] Creating layer norm2
I0326 23:35:58.307607 13449 net.cpp:91] Creating Layer norm2
I0326 23:35:58.307627 13449 net.cpp:425] norm2 <- conv2
I0326 23:35:58.307639 13449 net.cpp:399] norm2 -> norm2
I0326 23:35:58.307878 13449 net.cpp:141] Setting up norm2
I0326 23:35:58.307895 13449 net.cpp:148] Top shape: 50 256 15 7 (1344000)
I0326 23:35:58.307904 13449 net.cpp:156] Memory required for data: 61997000
I0326 23:35:58.307911 13449 layer_factory.hpp:77] Creating layer pool2
I0326 23:35:58.307924 13449 net.cpp:91] Creating Layer pool2
I0326 23:35:58.307932 13449 net.cpp:425] pool2 <- norm2
I0326 23:35:58.307945 13449 net.cpp:399] pool2 -> pool2
I0326 23:35:58.308006 13449 net.cpp:141] Setting up pool2
I0326 23:35:58.308020 13449 net.cpp:148] Top shape: 50 256 7 3 (268800)
I0326 23:35:58.308028 13449 net.cpp:156] Memory required for data: 63072200
I0326 23:35:58.308035 13449 layer_factory.hpp:77] Creating layer conv3
I0326 23:35:58.308056 13449 net.cpp:91] Creating Layer conv3
I0326 23:35:58.308065 13449 net.cpp:425] conv3 <- pool2
I0326 23:35:58.308078 13449 net.cpp:399] conv3 -> conv3
I0326 23:35:58.337266 13449 net.cpp:141] Setting up conv3
I0326 23:35:58.337290 13449 net.cpp:148] Top shape: 50 384 7 3 (403200)
I0326 23:35:58.337297 13449 net.cpp:156] Memory required for data: 64685000
I0326 23:35:58.337311 13449 layer_factory.hpp:77] Creating layer relu3
I0326 23:35:58.337326 13449 net.cpp:91] Creating Layer relu3
I0326 23:35:58.337334 13449 net.cpp:425] relu3 <- conv3
I0326 23:35:58.337344 13449 net.cpp:386] relu3 -> conv3 (in-place)
I0326 23:35:58.337657 13449 net.cpp:141] Setting up relu3
I0326 23:35:58.337677 13449 net.cpp:148] Top shape: 50 384 7 3 (403200)
I0326 23:35:58.337684 13449 net.cpp:156] Memory required for data: 66297800
I0326 23:35:58.337692 13449 layer_factory.hpp:77] Creating layer conv4
I0326 23:35:58.337713 13449 net.cpp:91] Creating Layer conv4
I0326 23:35:58.337721 13449 net.cpp:425] conv4 <- conv3
I0326 23:35:58.337733 13449 net.cpp:399] conv4 -> conv4
I0326 23:35:58.360309 13449 net.cpp:141] Setting up conv4
I0326 23:35:58.360332 13449 net.cpp:148] Top shape: 50 384 7 3 (403200)
I0326 23:35:58.360340 13449 net.cpp:156] Memory required for data: 67910600
I0326 23:35:58.360352 13449 layer_factory.hpp:77] Creating layer relu4
I0326 23:35:58.360363 13449 net.cpp:91] Creating Layer relu4
I0326 23:35:58.360370 13449 net.cpp:425] relu4 <- conv4
I0326 23:35:58.360383 13449 net.cpp:386] relu4 -> conv4 (in-place)
I0326 23:35:58.360704 13449 net.cpp:141] Setting up relu4
I0326 23:35:58.360723 13449 net.cpp:148] Top shape: 50 384 7 3 (403200)
I0326 23:35:58.360730 13449 net.cpp:156] Memory required for data: 69523400
I0326 23:35:58.360738 13449 layer_factory.hpp:77] Creating layer conv5
I0326 23:35:58.360757 13449 net.cpp:91] Creating Layer conv5
I0326 23:35:58.360766 13449 net.cpp:425] conv5 <- conv4
I0326 23:35:58.360780 13449 net.cpp:399] conv5 -> conv5
I0326 23:35:58.376407 13449 net.cpp:141] Setting up conv5
I0326 23:35:58.376430 13449 net.cpp:148] Top shape: 50 256 7 3 (268800)
I0326 23:35:58.376438 13449 net.cpp:156] Memory required for data: 70598600
I0326 23:35:58.376452 13449 layer_factory.hpp:77] Creating layer relu5
I0326 23:35:58.376466 13449 net.cpp:91] Creating Layer relu5
I0326 23:35:58.376476 13449 net.cpp:425] relu5 <- conv5
I0326 23:35:58.376484 13449 net.cpp:386] relu5 -> conv5 (in-place)
I0326 23:35:58.376813 13449 net.cpp:141] Setting up relu5
I0326 23:35:58.376832 13449 net.cpp:148] Top shape: 50 256 7 3 (268800)
I0326 23:35:58.376839 13449 net.cpp:156] Memory required for data: 71673800
I0326 23:35:58.376848 13449 layer_factory.hpp:77] Creating layer pool5
I0326 23:35:58.376862 13449 net.cpp:91] Creating Layer pool5
I0326 23:35:58.376870 13449 net.cpp:425] pool5 <- conv5
I0326 23:35:58.376883 13449 net.cpp:399] pool5 -> pool5
I0326 23:35:58.376941 13449 net.cpp:141] Setting up pool5
I0326 23:35:58.376956 13449 net.cpp:148] Top shape: 50 256 3 1 (38400)
I0326 23:35:58.376965 13449 net.cpp:156] Memory required for data: 71827400
I0326 23:35:58.376972 13449 layer_factory.hpp:77] Creating layer ip6
I0326 23:35:58.376996 13449 net.cpp:91] Creating Layer ip6
I0326 23:35:58.377015 13449 net.cpp:425] ip6 <- pool5
I0326 23:35:58.377029 13449 net.cpp:399] ip6 -> ip6
I0326 23:35:58.426017 13449 net.cpp:141] Setting up ip6
I0326 23:35:58.426038 13449 net.cpp:148] Top shape: 50 2048 (102400)
I0326 23:35:58.426045 13449 net.cpp:156] Memory required for data: 72237000
I0326 23:35:58.426056 13449 layer_factory.hpp:77] Creating layer relu6
I0326 23:35:58.426067 13449 net.cpp:91] Creating Layer relu6
I0326 23:35:58.426076 13449 net.cpp:425] relu6 <- ip6
I0326 23:35:58.426090 13449 net.cpp:386] relu6 -> ip6 (in-place)
I0326 23:35:58.426286 13449 net.cpp:141] Setting up relu6
I0326 23:35:58.426306 13449 net.cpp:148] Top shape: 50 2048 (102400)
I0326 23:35:58.426313 13449 net.cpp:156] Memory required for data: 72646600
I0326 23:35:58.426321 13449 layer_factory.hpp:77] Creating layer drop6
I0326 23:35:58.426334 13449 net.cpp:91] Creating Layer drop6
I0326 23:35:58.426342 13449 net.cpp:425] drop6 <- ip6
I0326 23:35:58.426352 13449 net.cpp:386] drop6 -> ip6 (in-place)
I0326 23:35:58.426400 13449 net.cpp:141] Setting up drop6
I0326 23:35:58.426415 13449 net.cpp:148] Top shape: 50 2048 (102400)
I0326 23:35:58.426424 13449 net.cpp:156] Memory required for data: 73056200
I0326 23:35:58.426431 13449 layer_factory.hpp:77] Creating layer ip7
I0326 23:35:58.426446 13449 net.cpp:91] Creating Layer ip7
I0326 23:35:58.426455 13449 net.cpp:425] ip7 <- ip6
I0326 23:35:58.426465 13449 net.cpp:399] ip7 -> ip7
I0326 23:35:58.493986 13449 net.cpp:141] Setting up ip7
I0326 23:35:58.494027 13449 net.cpp:148] Top shape: 50 1024 (51200)
I0326 23:35:58.494037 13449 net.cpp:156] Memory required for data: 73261000
I0326 23:35:58.494071 13449 layer_factory.hpp:77] Creating layer relu7
I0326 23:35:58.494088 13449 net.cpp:91] Creating Layer relu7
I0326 23:35:58.494104 13449 net.cpp:425] relu7 <- ip7
I0326 23:35:58.494118 13449 net.cpp:386] relu7 -> ip7 (in-place)
I0326 23:35:58.494720 13449 net.cpp:141] Setting up relu7
I0326 23:35:58.494740 13449 net.cpp:148] Top shape: 50 1024 (51200)
I0326 23:35:58.494748 13449 net.cpp:156] Memory required for data: 73465800
I0326 23:35:58.494756 13449 layer_factory.hpp:77] Creating layer drop7
I0326 23:35:58.494773 13449 net.cpp:91] Creating Layer drop7
I0326 23:35:58.494783 13449 net.cpp:425] drop7 <- ip7
I0326 23:35:58.494796 13449 net.cpp:386] drop7 -> ip7 (in-place)
I0326 23:35:58.494850 13449 net.cpp:141] Setting up drop7
I0326 23:35:58.494865 13449 net.cpp:148] Top shape: 50 1024 (51200)
I0326 23:35:58.494873 13449 net.cpp:156] Memory required for data: 73670600
I0326 23:35:58.494885 13449 layer_factory.hpp:77] Creating layer ip8
I0326 23:35:58.494909 13449 net.cpp:91] Creating Layer ip8
I0326 23:35:58.494917 13449 net.cpp:425] ip8 <- ip7
I0326 23:35:58.494931 13449 net.cpp:399] ip8 -> feat
I0326 23:35:58.511476 13449 net.cpp:141] Setting up ip8
I0326 23:35:58.511497 13449 net.cpp:148] Top shape: 50 512 (25600)
I0326 23:35:58.511505 13449 net.cpp:156] Memory required for data: 73773000
I0326 23:35:58.511517 13449 layer_factory.hpp:77] Creating layer conv1_p
I0326 23:35:58.511546 13449 net.cpp:91] Creating Layer conv1_p
I0326 23:35:58.511557 13449 net.cpp:425] conv1_p <- data_p
I0326 23:35:58.511571 13449 net.cpp:399] conv1_p -> conv1_p
I0326 23:35:58.513823 13449 net.cpp:141] Setting up conv1_p
I0326 23:35:58.513842 13449 net.cpp:148] Top shape: 50 96 30 14 (2016000)
I0326 23:35:58.513851 13449 net.cpp:156] Memory required for data: 81837000
I0326 23:35:58.513870 13449 net.cpp:485] Sharing parameters 'conv1' owned by layer 'conv1', param index 0
I0326 23:35:58.513883 13449 net.cpp:485] Sharing parameters 'conv1_b' owned by layer 'conv1', param index 1
I0326 23:35:58.513891 13449 layer_factory.hpp:77] Creating layer relu1_p
I0326 23:35:58.513901 13449 net.cpp:91] Creating Layer relu1_p
I0326 23:35:58.513909 13449 net.cpp:425] relu1_p <- conv1_p
I0326 23:35:58.513922 13449 net.cpp:386] relu1_p -> conv1_p (in-place)
I0326 23:35:58.514114 13449 net.cpp:141] Setting up relu1_p
I0326 23:35:58.514140 13449 net.cpp:148] Top shape: 50 96 30 14 (2016000)
I0326 23:35:58.514153 13449 net.cpp:156] Memory required for data: 89901000
I0326 23:35:58.514170 13449 layer_factory.hpp:77] Creating layer norm1_p
I0326 23:35:58.514191 13449 net.cpp:91] Creating Layer norm1_p
I0326 23:35:58.514201 13449 net.cpp:425] norm1_p <- conv1_p
I0326 23:35:58.514211 13449 net.cpp:399] norm1_p -> norm1_p
I0326 23:35:58.514587 13449 net.cpp:141] Setting up norm1_p
I0326 23:35:58.514606 13449 net.cpp:148] Top shape: 50 96 30 14 (2016000)
I0326 23:35:58.514614 13449 net.cpp:156] Memory required for data: 97965000
I0326 23:35:58.514623 13449 layer_factory.hpp:77] Creating layer pool1_p
I0326 23:35:58.514644 13449 net.cpp:91] Creating Layer pool1_p
I0326 23:35:58.514654 13449 net.cpp:425] pool1_p <- norm1_p
I0326 23:35:58.514667 13449 net.cpp:399] pool1_p -> pool1_p
I0326 23:35:58.514724 13449 net.cpp:141] Setting up pool1_p
I0326 23:35:58.514739 13449 net.cpp:148] Top shape: 50 96 15 7 (504000)
I0326 23:35:58.514746 13449 net.cpp:156] Memory required for data: 99981000
I0326 23:35:58.514755 13449 layer_factory.hpp:77] Creating layer conv2_p
I0326 23:35:58.514777 13449 net.cpp:91] Creating Layer conv2_p
I0326 23:35:58.514787 13449 net.cpp:425] conv2_p <- pool1_p
I0326 23:35:58.514806 13449 net.cpp:399] conv2_p -> conv2_p
I0326 23:35:58.526252 13449 net.cpp:141] Setting up conv2_p
I0326 23:35:58.526273 13449 net.cpp:148] Top shape: 50 256 15 7 (1344000)
I0326 23:35:58.526281 13449 net.cpp:156] Memory required for data: 105357000
I0326 23:35:58.526290 13449 net.cpp:485] Sharing parameters 'conv2' owned by layer 'conv2', param index 0
I0326 23:35:58.526299 13449 net.cpp:485] Sharing parameters 'conv2_b' owned by layer 'conv2', param index 1
I0326 23:35:58.526309 13449 layer_factory.hpp:77] Creating layer relu2_p
I0326 23:35:58.526319 13449 net.cpp:91] Creating Layer relu2_p
I0326 23:35:58.526327 13449 net.cpp:425] relu2_p <- conv2_p
I0326 23:35:58.526337 13449 net.cpp:386] relu2_p -> conv2_p (in-place)
I0326 23:35:58.526686 13449 net.cpp:141] Setting up relu2_p
I0326 23:35:58.526705 13449 net.cpp:148] Top shape: 50 256 15 7 (1344000)
I0326 23:35:58.526713 13449 net.cpp:156] Memory required for data: 110733000
I0326 23:35:58.526721 13449 layer_factory.hpp:77] Creating layer norm2_p
I0326 23:35:58.526741 13449 net.cpp:91] Creating Layer norm2_p
I0326 23:35:58.526751 13449 net.cpp:425] norm2_p <- conv2_p
I0326 23:35:58.526762 13449 net.cpp:399] norm2_p -> norm2_p
I0326 23:35:58.527142 13449 net.cpp:141] Setting up norm2_p
I0326 23:35:58.527160 13449 net.cpp:148] Top shape: 50 256 15 7 (1344000)
I0326 23:35:58.527168 13449 net.cpp:156] Memory required for data: 116109000
I0326 23:35:58.527176 13449 layer_factory.hpp:77] Creating layer pool2_p
I0326 23:35:58.527191 13449 net.cpp:91] Creating Layer pool2_p
I0326 23:35:58.527201 13449 net.cpp:425] pool2_p <- norm2_p
I0326 23:35:58.527211 13449 net.cpp:399] pool2_p -> pool2_p
I0326 23:35:58.527268 13449 net.cpp:141] Setting up pool2_p
I0326 23:35:58.527283 13449 net.cpp:148] Top shape: 50 256 7 3 (268800)
I0326 23:35:58.527290 13449 net.cpp:156] Memory required for data: 117184200
I0326 23:35:58.527298 13449 layer_factory.hpp:77] Creating layer conv3_p
I0326 23:35:58.527321 13449 net.cpp:91] Creating Layer conv3_p
I0326 23:35:58.527331 13449 net.cpp:425] conv3_p <- pool2_p
I0326 23:35:58.527343 13449 net.cpp:399] conv3_p -> conv3_p
I0326 23:35:58.556017 13449 net.cpp:141] Setting up conv3_p
I0326 23:35:58.556040 13449 net.cpp:148] Top shape: 50 384 7 3 (403200)
I0326 23:35:58.556048 13449 net.cpp:156] Memory required for data: 118797000
I0326 23:35:58.556056 13449 net.cpp:485] Sharing parameters 'conv3' owned by layer 'conv3', param index 0
I0326 23:35:58.556066 13449 net.cpp:485] Sharing parameters 'conv3_b' owned by layer 'conv3', param index 1
I0326 23:35:58.556073 13449 layer_factory.hpp:77] Creating layer relu3_p
I0326 23:35:58.556087 13449 net.cpp:91] Creating Layer relu3_p
I0326 23:35:58.556094 13449 net.cpp:425] relu3_p <- conv3_p
I0326 23:35:58.556104 13449 net.cpp:386] relu3_p -> conv3_p (in-place)
I0326 23:35:58.556443 13449 net.cpp:141] Setting up relu3_p
I0326 23:35:58.556462 13449 net.cpp:148] Top shape: 50 384 7 3 (403200)
I0326 23:35:58.556478 13449 net.cpp:156] Memory required for data: 120409800
I0326 23:35:58.556488 13449 layer_factory.hpp:77] Creating layer conv4_p
I0326 23:35:58.556512 13449 net.cpp:91] Creating Layer conv4_p
I0326 23:35:58.556522 13449 net.cpp:425] conv4_p <- conv3_p
I0326 23:35:58.556536 13449 net.cpp:399] conv4_p -> conv4_p
I0326 23:35:58.579119 13449 net.cpp:141] Setting up conv4_p
I0326 23:35:58.579140 13449 net.cpp:148] Top shape: 50 384 7 3 (403200)
I0326 23:35:58.579149 13449 net.cpp:156] Memory required for data: 122022600
I0326 23:35:58.579159 13449 net.cpp:485] Sharing parameters 'conv4' owned by layer 'conv4', param index 0
I0326 23:35:58.579169 13449 net.cpp:485] Sharing parameters 'conv4_b' owned by layer 'conv4', param index 1
I0326 23:35:58.579176 13449 layer_factory.hpp:77] Creating layer relu4_p
I0326 23:35:58.579186 13449 net.cpp:91] Creating Layer relu4_p
I0326 23:35:58.579195 13449 net.cpp:425] relu4_p <- conv4_p
I0326 23:35:58.579206 13449 net.cpp:386] relu4_p -> conv4_p (in-place)
I0326 23:35:58.579531 13449 net.cpp:141] Setting up relu4_p
I0326 23:35:58.579550 13449 net.cpp:148] Top shape: 50 384 7 3 (403200)
I0326 23:35:58.579557 13449 net.cpp:156] Memory required for data: 123635400
I0326 23:35:58.579566 13449 layer_factory.hpp:77] Creating layer conv5_p
I0326 23:35:58.579581 13449 net.cpp:91] Creating Layer conv5_p
I0326 23:35:58.579591 13449 net.cpp:425] conv5_p <- conv4_p
I0326 23:35:58.579605 13449 net.cpp:399] conv5_p -> conv5_p
I0326 23:35:58.595386 13449 net.cpp:141] Setting up conv5_p
I0326 23:35:58.595408 13449 net.cpp:148] Top shape: 50 256 7 3 (268800)
I0326 23:35:58.595417 13449 net.cpp:156] Memory required for data: 124710600
I0326 23:35:58.595425 13449 net.cpp:485] Sharing parameters 'conv5' owned by layer 'conv5', param index 0
I0326 23:35:58.595435 13449 net.cpp:485] Sharing parameters 'conv5_b' owned by layer 'conv5', param index 1
I0326 23:35:58.595443 13449 layer_factory.hpp:77] Creating layer relu5_p
I0326 23:35:58.595453 13449 net.cpp:91] Creating Layer relu5_p
I0326 23:35:58.595461 13449 net.cpp:425] relu5_p <- conv5_p
I0326 23:35:58.595470 13449 net.cpp:386] relu5_p -> conv5_p (in-place)
I0326 23:35:58.595726 13449 net.cpp:141] Setting up relu5_p
I0326 23:35:58.595746 13449 net.cpp:148] Top shape: 50 256 7 3 (268800)
I0326 23:35:58.595754 13449 net.cpp:156] Memory required for data: 125785800
I0326 23:35:58.595769 13449 layer_factory.hpp:77] Creating layer pool5_p
I0326 23:35:58.595780 13449 net.cpp:91] Creating Layer pool5_p
I0326 23:35:58.595789 13449 net.cpp:425] pool5_p <- conv5_p
I0326 23:35:58.595799 13449 net.cpp:399] pool5_p -> pool5_p
I0326 23:35:58.595863 13449 net.cpp:141] Setting up pool5_p
I0326 23:35:58.595878 13449 net.cpp:148] Top shape: 50 256 3 1 (38400)
I0326 23:35:58.595886 13449 net.cpp:156] Memory required for data: 125939400
I0326 23:35:58.595893 13449 layer_factory.hpp:77] Creating layer ip6_p
I0326 23:35:58.595907 13449 net.cpp:91] Creating Layer ip6_p
I0326 23:35:58.595916 13449 net.cpp:425] ip6_p <- pool5_p
I0326 23:35:58.595929 13449 net.cpp:399] ip6_p -> ip6_p
I0326 23:35:58.644929 13449 net.cpp:141] Setting up ip6_p
I0326 23:35:58.644951 13449 net.cpp:148] Top shape: 50 2048 (102400)
I0326 23:35:58.644959 13449 net.cpp:156] Memory required for data: 126349000
I0326 23:35:58.644968 13449 net.cpp:485] Sharing parameters 'ip6' owned by layer 'ip6', param index 0
I0326 23:35:58.644978 13449 net.cpp:485] Sharing parameters 'ip6_b' owned by layer 'ip6', param index 1
I0326 23:35:58.644984 13449 layer_factory.hpp:77] Creating layer relu6_p
I0326 23:35:58.644994 13449 net.cpp:91] Creating Layer relu6_p
I0326 23:35:58.645002 13449 net.cpp:425] relu6_p <- ip6_p
I0326 23:35:58.645022 13449 net.cpp:386] relu6_p -> ip6_p (in-place)
I0326 23:35:58.645354 13449 net.cpp:141] Setting up relu6_p
I0326 23:35:58.645371 13449 net.cpp:148] Top shape: 50 2048 (102400)
I0326 23:35:58.645380 13449 net.cpp:156] Memory required for data: 126758600
I0326 23:35:58.645393 13449 layer_factory.hpp:77] Creating layer drop6_p
I0326 23:35:58.645412 13449 net.cpp:91] Creating Layer drop6_p
I0326 23:35:58.645421 13449 net.cpp:425] drop6_p <- ip6_p
I0326 23:35:58.645431 13449 net.cpp:386] drop6_p -> ip6_p (in-place)
I0326 23:35:58.645476 13449 net.cpp:141] Setting up drop6_p
I0326 23:35:58.645490 13449 net.cpp:148] Top shape: 50 2048 (102400)
I0326 23:35:58.645498 13449 net.cpp:156] Memory required for data: 127168200
I0326 23:35:58.645512 13449 layer_factory.hpp:77] Creating layer ip7_p
I0326 23:35:58.645527 13449 net.cpp:91] Creating Layer ip7_p
I0326 23:35:58.645536 13449 net.cpp:425] ip7_p <- ip6_p
I0326 23:35:58.645546 13449 net.cpp:399] ip7_p -> ip7_p
I0326 23:35:58.710763 13449 net.cpp:141] Setting up ip7_p
I0326 23:35:58.710785 13449 net.cpp:148] Top shape: 50 1024 (51200)
I0326 23:35:58.710793 13449 net.cpp:156] Memory required for data: 127373000
I0326 23:35:58.710803 13449 net.cpp:485] Sharing parameters 'ip7' owned by layer 'ip7', param index 0
I0326 23:35:58.710811 13449 net.cpp:485] Sharing parameters 'ip7_b' owned by layer 'ip7', param index 1
I0326 23:35:58.710819 13449 layer_factory.hpp:77] Creating layer relu7_p
I0326 23:35:58.710832 13449 net.cpp:91] Creating Layer relu7_p
I0326 23:35:58.710841 13449 net.cpp:425] relu7_p <- ip7_p
I0326 23:35:58.710851 13449 net.cpp:386] relu7_p -> ip7_p (in-place)
I0326 23:35:58.711053 13449 net.cpp:141] Setting up relu7_p
I0326 23:35:58.711069 13449 net.cpp:148] Top shape: 50 1024 (51200)
I0326 23:35:58.711077 13449 net.cpp:156] Memory required for data: 127577800
I0326 23:35:58.711086 13449 layer_factory.hpp:77] Creating layer drop7_p
I0326 23:35:58.711097 13449 net.cpp:91] Creating Layer drop7_p
I0326 23:35:58.711105 13449 net.cpp:425] drop7_p <- ip7_p
I0326 23:35:58.711118 13449 net.cpp:386] drop7_p -> ip7_p (in-place)
I0326 23:35:58.711159 13449 net.cpp:141] Setting up drop7_p
I0326 23:35:58.711176 13449 net.cpp:148] Top shape: 50 1024 (51200)
I0326 23:35:58.711184 13449 net.cpp:156] Memory required for data: 127782600
I0326 23:35:58.711192 13449 layer_factory.hpp:77] Creating layer ip8_p
I0326 23:35:58.711204 13449 net.cpp:91] Creating Layer ip8_p
I0326 23:35:58.711211 13449 net.cpp:425] ip8_p <- ip7_p
I0326 23:35:58.711225 13449 net.cpp:399] ip8_p -> feat_p
I0326 23:35:58.727744 13449 net.cpp:141] Setting up ip8_p
I0326 23:35:58.727764 13449 net.cpp:148] Top shape: 50 512 (25600)
I0326 23:35:58.727772 13449 net.cpp:156] Memory required for data: 127885000
I0326 23:35:58.727782 13449 net.cpp:485] Sharing parameters 'ip8' owned by layer 'ip8', param index 0
I0326 23:35:58.727792 13449 net.cpp:485] Sharing parameters 'ip8_b' owned by layer 'ip8', param index 1
I0326 23:35:58.727799 13449 layer_factory.hpp:77] Creating layer loss
I0326 23:35:58.727813 13449 net.cpp:91] Creating Layer loss
…
