…
I0326 21:52:09.789775 22557 solver.cpp:91] Creating training net from net file: train_val.prototxt
I0326 21:52:09.791136 22557 net.cpp:313] The NetState phase (0) differed from the phase (1) specified by a rule in layer pair_data
I0326 21:52:09.791561 22557 net.cpp:49] Initializing net from parameters: 
name: "AlexNet"
state {
  phase: TRAIN
}
layer {
  name: "pair_data"
  type: "Data"
  top: "pair_data"
  top: "sim"
  include {
    phase: TRAIN
  }
  transform_param {
    scale: 0.00390625
  }
  data_param {
    source: "lmdb_reid_train2"
    batch_size: 256
    backend: LMDB
  }
}
layer {
  name: "slice_pair"
  type: "Slice"
  bottom: "pair_data"
  top: "data"
  top: "data_p"
  slice_param {
    slice_dim: 1
    slice_point: 3
  }
}
layer {
  name: "conv1"
  type: "Convolution"
  bottom: "data"
  top: "conv1"
  param {
    name: "conv1"
    lr_mult: 1
    decay_mult: 1
  }
  param {
    name: "conv1_b"
    lr_mult: 2
    decay_mult: 0
  }
  convolution_param {
    num_output: 96
    kernel_size: 11
    stride: 4
    weight_filler {
      type: "gaussian"
      std: 0.01
    }
    bias_filler {
      type: "constant"
      value: 0
    }
  }
}
layer {
  name: "relu1"
  type: "ReLU"
  bottom: "conv1"
  top: "conv1"
}
layer {
  name: "norm1"
  type: "LRN"
  bottom: "conv1"
  top: "norm1"
  lrn_param {
    local_size: 5
    alpha: 0.0001
    beta: 0.75
  }
}
layer {
  name: "pool1"
  type: "Pooling"
  bottom: "norm1"
  top: "pool1"
  pooling_param {
    pool: MAX
    kernel_size: 3
    stride: 2
  }
}
layer {
  name: "conv2"
  type: "Convolution"
  bottom: "pool1"
  top: "conv2"
  param {
    name: "conv2"
    lr_mult: 1
    decay_mult: 1
  }
  param {
    name: "conv2_b"
    lr_mult: 2
    decay_mult: 0
  }
  convolution_param {
    num_output: 256
    pad: 2
    kernel_size: 5
    group: 2
    weight_filler {
      type: "gaussian"
      std: 0.01
    }
    bias_filler {
      type: "constant"
      value: 0.1
    }
  }
}
layer {
  name: "relu2"
  type: "ReLU"
  bottom: "conv2"
  top: "conv2"
}
layer {
  name: "norm2"
  type: "LRN"
  bottom: "conv2"
  top: "norm2"
  lrn_param {
    local_size: 5
    alpha: 0.0001
    beta: 0.75
  }
}
layer {
  name: "pool2"
  type: "Pooling"
  bottom: "norm2"
  top: "pool2"
  pooling_param {
    pool: MAX
    kernel_size: 3
    stride: 2
  }
}
layer {
  name: "conv3"
  type: "Convolution"
  bottom: "pool2"
  top: "conv3"
  param {
    name: "conv3"
    lr_mult: 1
    decay_mult: 1
  }
  param {
    name: "conv3_b"
    lr_mult: 2
    decay_mult: 0
  }
  convolution_param {
    num_output: 384
    pad: 1
    kernel_size: 3
    weight_filler {
      type: "gaussian"
      std: 0.01
    }
    bias_filler {
      type: "constant"
      value: 0
    }
  }
}
layer {
  name: "relu3"
  type: "ReLU"
  bottom: "conv3"
  top: "conv3"
}
layer {
  name: "conv4"
  type: "Convolution"
  bottom: "conv3"
  top: "conv4"
  param {
    name: "conv4"
    lr_mult: 1
    decay_mult: 1
  }
  param {
    name: "conv4_b"
    lr_mult: 2
    decay_mult: 0
  }
  convolution_param {
    num_output: 384
    pad: 1
    kernel_size: 3
    group: 2
    weight_filler {
      type: "gaussian"
      std: 0.01
    }
    bias_filler {
      type: "constant"
      value: 0.1
    }
  }
}
layer {
  name: "relu4"
  type: "ReLU"
  bottom: "conv4"
  top: "conv4"
}
layer {
  name: "conv5"
  type: "Convolution"
  bottom: "conv4"
  top: "conv5"
  param {
    name: "conv5"
    lr_mult: 1
    decay_mult: 1
  }
  param {
    name: "conv5_b"
    lr_mult: 2
    decay_mult: 0
  }
  convolution_param {
    num_output: 256
    pad: 1
    kernel_size: 3
    group: 2
    weight_filler {
      type: "gaussian"
      std: 0.01
    }
    bias_filler {
      type: "constant"
      value: 0.1
    }
  }
}
layer {
  name: "relu5"
  type: "ReLU"
  bottom: "conv5"
  top: "conv5"
}
layer {
  name: "pool5"
  type: "Pooling"
  bottom: "conv5"
  top: "pool5"
  pooling_param {
    pool: MAX
    kernel_size: 3
    stride: 2
  }
}
layer {
  name: "ip6"
  type: "InnerProduct"
  bottom: "pool5"
  top: "ip6"
  param {
    name: "ip6"
    lr_mult: 1
    decay_mult: 1
  }
  param {
    name: "ip6_b"
    lr_mult: 2
    decay_mult: 0
  }
  inner_product_param {
    num_output: 2048
    weight_filler {
      type: "gaussian"
      std: 0.005
    }
    bias_filler {
      type: "constant"
      value: 0.1
    }
  }
}
layer {
  name: "relu6"
  type: "ReLU"
  bottom: "ip6"
  top: "ip6"
}
layer {
  name: "drop6"
  type: "Dropout"
  bottom: "ip6"
  top: "ip6"
  dropout_param {
    dropout_ratio: 0.5
  }
}
layer {
  name: "ip7"
  type: "InnerProduct"
  bottom: "ip6"
  top: "ip7"
  param {
    name: "ip7"
    lr_mult: 1
    decay_mult: 1
  }
  param {
    name: "ip7_b"
    lr_mult: 2
    decay_mult: 0
  }
  inner_product_param {
    num_output: 1024
    weight_filler {
      type: "gaussian"
      std: 0.005
    }
    bias_filler {
      type: "constant"
      value: 0.1
    }
  }
}
layer {
  name: "relu7"
  type: "ReLU"
  bottom: "ip7"
  top: "ip7"
}
layer {
  name: "drop7"
  type: "Dropout"
  bottom: "ip7"
  top: "ip7"
  dropout_param {
    dropout_ratio: 0.5
  }
}
layer {
  name: "ip8"
  type: "InnerProduct"
  bottom: "ip7"
  top: "feat"
  param {
    name: "ip8"
    lr_mult: 1
    decay_mult: 1
  }
  param {
    name: "ip8_b"
    lr_mult: 2
    decay_mult: 0
  }
  inner_product_param {
    num_output: 512
    weight_filler {
      type: "gaussian"
      std: 0.01
    }
    bias_filler {
      type: "constant"
      value: 0
    }
  }
}
layer {
  name: "conv1_p"
  type: "Convolution"
  bottom: "data_p"
  top: "conv1_p"
  param {
    name: "conv1"
    lr_mult: 1
    decay_mult: 1
  }
  param {
    name: "conv1_b"
    lr_mult: 2
    decay_mult: 0
  }
  convolution_param {
    num_output: 96
    kernel_size: 11
    stride: 4
    weight_filler {
      type: "gaussian"
      std: 0.01
    }
    bias_filler {
      type: "constant"
      value: 0
    }
  }
}
layer {
  name: "relu1_p"
  type: "ReLU"
  bottom: "conv1_p"
  top: "conv1_p"
}
layer {
  name: "norm1_p"
  type: "LRN"
  bottom: "conv1_p"
  top: "norm1_p"
  lrn_param {
    local_size: 5
    alpha: 0.0001
    beta: 0.75
  }
}
layer {
  name: "pool1_p"
  type: "Pooling"
  bottom: "norm1_p"
  top: "pool1_p"
  pooling_param {
    pool: MAX
    kernel_size: 3
    stride: 2
  }
}
layer {
  name: "conv2_p"
  type: "Convolution"
  bottom: "pool1_p"
  top: "conv2_p"
  param {
    name: "conv2"
    lr_mult: 1
    decay_mult: 1
  }
  param {
    name: "conv2_b"
    lr_mult: 2
    decay_mult: 0
  }
  convolution_param {
    num_output: 256
    pad: 2
    kernel_size: 5
    group: 2
    weight_filler {
      type: "gaussian"
      std: 0.01
    }
    bias_filler {
      type: "constant"
      value: 0.1
    }
  }
}
layer {
  name: "relu2_p"
  type: "ReLU"
  bottom: "conv2_p"
  top: "conv2_p"
}
layer {
  name: "norm2_p"
  type: "LRN"
  bottom: "conv2_p"
  top: "norm2_p"
  lrn_param {
    local_size: 5
    alpha: 0.0001
    beta: 0.75
  }
}
layer {
  name: "pool2_p"
  type: "Pooling"
  bottom: "norm2_p"
  top: "pool2_p"
  pooling_param {
    pool: MAX
    kernel_size: 3
    stride: 2
  }
}
layer {
  name: "conv3_p"
  type: "Convolution"
  bottom: "pool2_p"
  top: "conv3_p"
  param {
    name: "conv3"
    lr_mult: 1
    decay_mult: 1
  }
  param {
    name: "conv3_b"
    lr_mult: 2
    decay_mult: 0
  }
  convolution_param {
    num_output: 384
    pad: 1
    kernel_size: 3
    weight_filler {
      type: "gaussian"
      std: 0.01
    }
    bias_filler {
      type: "constant"
      value: 0
    }
  }
}
layer {
  name: "relu3_p"
  type: "ReLU"
  bottom: "conv3_p"
  top: "conv3_p"
}
layer {
  name: "conv4_p"
  type: "Convolution"
  bottom: "conv3_p"
  top: "conv4_p"
  param {
    name: "conv4"
    lr_mult: 1
    decay_mult: 1
  }
  param {
    name: "conv4_b"
    lr_mult: 2
    decay_mult: 0
  }
  convolution_param {
    num_output: 384
    pad: 1
    kernel_size: 3
    group: 2
    weight_filler {
      type: "gaussian"
      std: 0.01
    }
    bias_filler {
      type: "constant"
      value: 0.1
    }
  }
}
layer {
  name: "relu4_p"
  type: "ReLU"
  bottom: "conv4_p"
  top: "conv4_p"
}
layer {
  name: "conv5_p"
  type: "Convolution"
  bottom: "conv4_p"
  top: "conv5_p"
  param {
    name: "conv5"
    lr_mult: 1
    decay_mult: 1
  }
  param {
    name: "conv5_b"
    lr_mult: 2
    decay_mult: 0
  }
  convolution_param {
    num_output: 256
    pad: 1
    kernel_size: 3
    group: 2
    weight_filler {
      type: "gaussian"
      std: 0.01
    }
    bias_filler {
      type: "constant"
      value: 0.1
    }
  }
}
layer {
  name: "relu5_p"
  type: "ReLU"
  bottom: "conv5_p"
  top: "conv5_p"
}
layer {
  name: "pool5_p"
  type: "Pooling"
  bottom: "conv5_p"
  top: "pool5_p"
  pooling_param {
    pool: MAX
    kernel_size: 3
    stride: 2
  }
}
layer {
  name: "ip6_p"
  type: "InnerProduct"
  bottom: "pool5_p"
  top: "ip6_p"
  param {
    name: "ip6"
    lr_mult: 1
    decay_mult: 1
  }
  param {
    name: "ip6_b"
    lr_mult: 2
    decay_mult: 0
  }
  inner_product_param {
    num_output: 2048
    weight_filler {
      type: "gaussian"
      std: 0.005
    }
    bias_filler {
      type: "constant"
      value: 0.1
    }
  }
}
layer {
  name: "relu6_p"
  type: "ReLU"
  bottom: "ip6_p"
  top: "ip6_p"
}
layer {
  name: "drop6_p"
  type: "Dropout"
  bottom: "ip6_p"
  top: "ip6_p"
  dropout_param {
    dropout_ratio: 0.5
  }
}
layer {
  name: "ip7_p"
  type: "InnerProduct"
  bottom: "ip6_p"
  top: "ip7_p"
  param {
    name: "ip7"
    lr_mult: 1
    decay_mult: 1
  }
  param {
    name: "ip7_b"
    lr_mult: 2
    decay_mult: 0
  }
  inner_product_param {
    num_output: 1024
    weight_filler {
      type: "gaussian"
      std: 0.005
    }
    bias_filler {
      type: "constant"
      value: 0.1
    }
  }
}
layer {
  name: "relu7_p"
  type: "ReLU"
  bottom: "ip7_p"
  top: "ip7_p"
}
layer {
  name: "drop7_p"
  type: "Dropout"
  bottom: "ip7_p"
  top: "ip7_p"
  dropout_param {
    dropout_ratio: 0.5
  }
}
layer {
  name: "ip8_p"
  type: "InnerProduct"
  bottom: "ip7_p"
  top: "feat_p"
  param {
    name: "ip8"
    lr_mult: 1
    decay_mult: 1
  }
  param {
    name: "ip8_b"
    lr_mult: 2
    decay_mult: 0
  }
  inner_product_param {
    num_output: 512
    weight_filler {
      type: "gaussian"
      std: 0.01
    }
    bias_filler {
      type: "constant"
      value: 0
    }
  }
}
layer {
  name: "loss"
  type: "ContrastiveLoss"
  bottom: "feat"
  bottom: "feat_p"
  bottom: "sim"
  top: "loss"
  contrastive_loss_param {
    margin: 1
  }
}
I0326 21:52:09.791817 22557 layer_factory.hpp:77] Creating layer pair_data
I0326 21:52:09.792510 22557 net.cpp:91] Creating Layer pair_data
I0326 21:52:09.792532 22557 net.cpp:399] pair_data -> pair_data
I0326 21:52:09.792606 22557 net.cpp:399] pair_data -> sim
I0326 21:52:09.794764 22583 db_lmdb.cpp:38] Opened lmdb lmdb_reid_train2
I0326 21:52:09.807413 22557 data_layer.cpp:41] output data size: 256,6,128,64
I0326 21:52:09.896570 22557 net.cpp:141] Setting up pair_data
I0326 21:52:09.896661 22557 net.cpp:148] Top shape: 256 6 128 64 (12582912)
I0326 21:52:09.896674 22557 net.cpp:148] Top shape: 256 (256)
I0326 21:52:09.896682 22557 net.cpp:156] Memory required for data: 50332672
I0326 21:52:09.896699 22557 layer_factory.hpp:77] Creating layer slice_pair
I0326 21:52:09.896733 22557 net.cpp:91] Creating Layer slice_pair
I0326 21:52:09.896747 22557 net.cpp:425] slice_pair <- pair_data
I0326 21:52:09.896777 22557 net.cpp:399] slice_pair -> data
I0326 21:52:09.896798 22557 net.cpp:399] slice_pair -> data_p
I0326 21:52:09.896864 22557 net.cpp:141] Setting up slice_pair
I0326 21:52:09.896879 22557 net.cpp:148] Top shape: 256 3 128 64 (6291456)
I0326 21:52:09.896888 22557 net.cpp:148] Top shape: 256 3 128 64 (6291456)
I0326 21:52:09.896895 22557 net.cpp:156] Memory required for data: 100664320
I0326 21:52:09.896919 22557 layer_factory.hpp:77] Creating layer conv1
I0326 21:52:09.896961 22557 net.cpp:91] Creating Layer conv1
I0326 21:52:09.896972 22557 net.cpp:425] conv1 <- data
I0326 21:52:09.896986 22557 net.cpp:399] conv1 -> conv1
I0326 21:52:10.127418 22557 net.cpp:141] Setting up conv1
I0326 21:52:10.127485 22557 net.cpp:148] Top shape: 256 96 30 14 (10321920)
I0326 21:52:10.127496 22557 net.cpp:156] Memory required for data: 141952000
I0326 21:52:10.127532 22557 layer_factory.hpp:77] Creating layer relu1
I0326 21:52:10.127554 22557 net.cpp:91] Creating Layer relu1
I0326 21:52:10.127564 22557 net.cpp:425] relu1 <- conv1
I0326 21:52:10.127578 22557 net.cpp:386] relu1 -> conv1 (in-place)
I0326 21:52:10.127876 22557 net.cpp:141] Setting up relu1
I0326 21:52:10.127894 22557 net.cpp:148] Top shape: 256 96 30 14 (10321920)
I0326 21:52:10.127903 22557 net.cpp:156] Memory required for data: 183239680
I0326 21:52:10.127912 22557 layer_factory.hpp:77] Creating layer norm1
I0326 21:52:10.127936 22557 net.cpp:91] Creating Layer norm1
I0326 21:52:10.127945 22557 net.cpp:425] norm1 <- conv1
I0326 21:52:10.127956 22557 net.cpp:399] norm1 -> norm1
I0326 21:52:10.128165 22557 net.cpp:141] Setting up norm1
I0326 21:52:10.128182 22557 net.cpp:148] Top shape: 256 96 30 14 (10321920)
I0326 21:52:10.128190 22557 net.cpp:156] Memory required for data: 224527360
I0326 21:52:10.128199 22557 layer_factory.hpp:77] Creating layer pool1
I0326 21:52:10.128217 22557 net.cpp:91] Creating Layer pool1
I0326 21:52:10.128226 22557 net.cpp:425] pool1 <- norm1
I0326 21:52:10.128237 22557 net.cpp:399] pool1 -> pool1
I0326 21:52:10.128296 22557 net.cpp:141] Setting up pool1
I0326 21:52:10.128310 22557 net.cpp:148] Top shape: 256 96 15 7 (2580480)
I0326 21:52:10.128319 22557 net.cpp:156] Memory required for data: 234849280
I0326 21:52:10.128326 22557 layer_factory.hpp:77] Creating layer conv2
I0326 21:52:10.128347 22557 net.cpp:91] Creating Layer conv2
I0326 21:52:10.128355 22557 net.cpp:425] conv2 <- pool1
I0326 21:52:10.128366 22557 net.cpp:399] conv2 -> conv2
I0326 21:52:10.139681 22557 net.cpp:141] Setting up conv2
I0326 21:52:10.139703 22557 net.cpp:148] Top shape: 256 256 15 7 (6881280)
I0326 21:52:10.139713 22557 net.cpp:156] Memory required for data: 262374400
I0326 21:52:10.139727 22557 layer_factory.hpp:77] Creating layer relu2
I0326 21:52:10.139739 22557 net.cpp:91] Creating Layer relu2
I0326 21:52:10.139749 22557 net.cpp:425] relu2 <- conv2
I0326 21:52:10.139758 22557 net.cpp:386] relu2 -> conv2 (in-place)
I0326 21:52:10.139927 22557 net.cpp:141] Setting up relu2
I0326 21:52:10.139945 22557 net.cpp:148] Top shape: 256 256 15 7 (6881280)
I0326 21:52:10.139952 22557 net.cpp:156] Memory required for data: 289899520
I0326 21:52:10.139961 22557 layer_factory.hpp:77] Creating layer norm2
I0326 21:52:10.139974 22557 net.cpp:91] Creating Layer norm2
I0326 21:52:10.139983 22557 net.cpp:425] norm2 <- conv2
I0326 21:52:10.139994 22557 net.cpp:399] norm2 -> norm2
I0326 21:52:10.140307 22557 net.cpp:141] Setting up norm2
I0326 21:52:10.140326 22557 net.cpp:148] Top shape: 256 256 15 7 (6881280)
I0326 21:52:10.140334 22557 net.cpp:156] Memory required for data: 317424640
I0326 21:52:10.140342 22557 layer_factory.hpp:77] Creating layer pool2
I0326 21:52:10.140355 22557 net.cpp:91] Creating Layer pool2
I0326 21:52:10.140363 22557 net.cpp:425] pool2 <- norm2
I0326 21:52:10.140373 22557 net.cpp:399] pool2 -> pool2
I0326 21:52:10.140416 22557 net.cpp:141] Setting up pool2
I0326 21:52:10.140430 22557 net.cpp:148] Top shape: 256 256 7 3 (1376256)
I0326 21:52:10.140439 22557 net.cpp:156] Memory required for data: 322929664
I0326 21:52:10.140446 22557 layer_factory.hpp:77] Creating layer conv3
I0326 21:52:10.140463 22557 net.cpp:91] Creating Layer conv3
I0326 21:52:10.140471 22557 net.cpp:425] conv3 <- pool2
I0326 21:52:10.140483 22557 net.cpp:399] conv3 -> conv3
I0326 21:52:10.169317 22557 net.cpp:141] Setting up conv3
I0326 21:52:10.169340 22557 net.cpp:148] Top shape: 256 384 7 3 (2064384)
I0326 21:52:10.169359 22557 net.cpp:156] Memory required for data: 331187200
I0326 21:52:10.169374 22557 layer_factory.hpp:77] Creating layer relu3
I0326 21:52:10.169400 22557 net.cpp:91] Creating Layer relu3
I0326 21:52:10.169409 22557 net.cpp:425] relu3 <- conv3
I0326 21:52:10.169420 22557 net.cpp:386] relu3 -> conv3 (in-place)
I0326 21:52:10.169608 22557 net.cpp:141] Setting up relu3
I0326 21:52:10.169625 22557 net.cpp:148] Top shape: 256 384 7 3 (2064384)
I0326 21:52:10.169632 22557 net.cpp:156] Memory required for data: 339444736
I0326 21:52:10.169641 22557 layer_factory.hpp:77] Creating layer conv4
I0326 21:52:10.169662 22557 net.cpp:91] Creating Layer conv4
I0326 21:52:10.169672 22557 net.cpp:425] conv4 <- conv3
I0326 21:52:10.169685 22557 net.cpp:399] conv4 -> conv4
I0326 21:52:10.192332 22557 net.cpp:141] Setting up conv4
I0326 21:52:10.192353 22557 net.cpp:148] Top shape: 256 384 7 3 (2064384)
I0326 21:52:10.192363 22557 net.cpp:156] Memory required for data: 347702272
I0326 21:52:10.192373 22557 layer_factory.hpp:77] Creating layer relu4
I0326 21:52:10.192385 22557 net.cpp:91] Creating Layer relu4
I0326 21:52:10.192394 22557 net.cpp:425] relu4 <- conv4
I0326 21:52:10.192404 22557 net.cpp:386] relu4 -> conv4 (in-place)
I0326 21:52:10.192596 22557 net.cpp:141] Setting up relu4
I0326 21:52:10.192613 22557 net.cpp:148] Top shape: 256 384 7 3 (2064384)
I0326 21:52:10.192620 22557 net.cpp:156] Memory required for data: 355959808
I0326 21:52:10.192628 22557 layer_factory.hpp:77] Creating layer conv5
I0326 21:52:10.192649 22557 net.cpp:91] Creating Layer conv5
I0326 21:52:10.192658 22557 net.cpp:425] conv5 <- conv4
I0326 21:52:10.192672 22557 net.cpp:399] conv5 -> conv5
I0326 21:52:10.208636 22557 net.cpp:141] Setting up conv5
I0326 21:52:10.208657 22557 net.cpp:148] Top shape: 256 256 7 3 (1376256)
I0326 21:52:10.208667 22557 net.cpp:156] Memory required for data: 361464832
I0326 21:52:10.208679 22557 layer_factory.hpp:77] Creating layer relu5
I0326 21:52:10.208694 22557 net.cpp:91] Creating Layer relu5
I0326 21:52:10.208703 22557 net.cpp:425] relu5 <- conv5
I0326 21:52:10.208712 22557 net.cpp:386] relu5 -> conv5 (in-place)
I0326 21:52:10.208899 22557 net.cpp:141] Setting up relu5
I0326 21:52:10.208914 22557 net.cpp:148] Top shape: 256 256 7 3 (1376256)
I0326 21:52:10.208922 22557 net.cpp:156] Memory required for data: 366969856
I0326 21:52:10.208932 22557 layer_factory.hpp:77] Creating layer pool5
I0326 21:52:10.208950 22557 net.cpp:91] Creating Layer pool5
I0326 21:52:10.208959 22557 net.cpp:425] pool5 <- conv5
I0326 21:52:10.208972 22557 net.cpp:399] pool5 -> pool5
I0326 21:52:10.209024 22557 net.cpp:141] Setting up pool5
I0326 21:52:10.209040 22557 net.cpp:148] Top shape: 256 256 3 1 (196608)
I0326 21:52:10.209048 22557 net.cpp:156] Memory required for data: 367756288
I0326 21:52:10.209058 22557 layer_factory.hpp:77] Creating layer ip6
I0326 21:52:10.209076 22557 net.cpp:91] Creating Layer ip6
I0326 21:52:10.209084 22557 net.cpp:425] ip6 <- pool5
I0326 21:52:10.209098 22557 net.cpp:399] ip6 -> ip6
I0326 21:52:10.259074 22557 net.cpp:141] Setting up ip6
I0326 21:52:10.259095 22557 net.cpp:148] Top shape: 256 2048 (524288)
I0326 21:52:10.259104 22557 net.cpp:156] Memory required for data: 369853440
I0326 21:52:10.259115 22557 layer_factory.hpp:77] Creating layer relu6
I0326 21:52:10.259127 22557 net.cpp:91] Creating Layer relu6
I0326 21:52:10.259135 22557 net.cpp:425] relu6 <- ip6
I0326 21:52:10.259145 22557 net.cpp:386] relu6 -> ip6 (in-place)
I0326 21:52:10.259446 22557 net.cpp:141] Setting up relu6
I0326 21:52:10.259464 22557 net.cpp:148] Top shape: 256 2048 (524288)
I0326 21:52:10.259472 22557 net.cpp:156] Memory required for data: 371950592
I0326 21:52:10.259480 22557 layer_factory.hpp:77] Creating layer drop6
I0326 21:52:10.259495 22557 net.cpp:91] Creating Layer drop6
I0326 21:52:10.259502 22557 net.cpp:425] drop6 <- ip6
I0326 21:52:10.259512 22557 net.cpp:386] drop6 -> ip6 (in-place)
I0326 21:52:10.259553 22557 net.cpp:141] Setting up drop6
I0326 21:52:10.259567 22557 net.cpp:148] Top shape: 256 2048 (524288)
I0326 21:52:10.259580 22557 net.cpp:156] Memory required for data: 374047744
I0326 21:52:10.259590 22557 layer_factory.hpp:77] Creating layer ip7
I0326 21:52:10.259616 22557 net.cpp:91] Creating Layer ip7
I0326 21:52:10.259625 22557 net.cpp:425] ip7 <- ip6
I0326 21:52:10.259636 22557 net.cpp:399] ip7 -> ip7
I0326 21:52:10.325593 22557 net.cpp:141] Setting up ip7
I0326 21:52:10.325620 22557 net.cpp:148] Top shape: 256 1024 (262144)
I0326 21:52:10.325628 22557 net.cpp:156] Memory required for data: 375096320
I0326 21:52:10.325640 22557 layer_factory.hpp:77] Creating layer relu7
I0326 21:52:10.325655 22557 net.cpp:91] Creating Layer relu7
I0326 21:52:10.325664 22557 net.cpp:425] relu7 <- ip7
I0326 21:52:10.325675 22557 net.cpp:386] relu7 -> ip7 (in-place)
I0326 21:52:10.325992 22557 net.cpp:141] Setting up relu7
I0326 21:52:10.326011 22557 net.cpp:148] Top shape: 256 1024 (262144)
I0326 21:52:10.326020 22557 net.cpp:156] Memory required for data: 376144896
I0326 21:52:10.326028 22557 layer_factory.hpp:77] Creating layer drop7
I0326 21:52:10.326042 22557 net.cpp:91] Creating Layer drop7
I0326 21:52:10.326051 22557 net.cpp:425] drop7 <- ip7
I0326 21:52:10.326064 22557 net.cpp:386] drop7 -> ip7 (in-place)
I0326 21:52:10.326095 22557 net.cpp:141] Setting up drop7
I0326 21:52:10.326108 22557 net.cpp:148] Top shape: 256 1024 (262144)
I0326 21:52:10.326115 22557 net.cpp:156] Memory required for data: 377193472
I0326 21:52:10.326123 22557 layer_factory.hpp:77] Creating layer ip8
I0326 21:52:10.326136 22557 net.cpp:91] Creating Layer ip8
I0326 21:52:10.326144 22557 net.cpp:425] ip8 <- ip7
I0326 21:52:10.326159 22557 net.cpp:399] ip8 -> feat
I0326 21:52:10.342787 22557 net.cpp:141] Setting up ip8
I0326 21:52:10.342810 22557 net.cpp:148] Top shape: 256 512 (131072)
I0326 21:52:10.342818 22557 net.cpp:156] Memory required for data: 377717760
I0326 21:52:10.342829 22557 layer_factory.hpp:77] Creating layer conv1_p
I0326 21:52:10.342850 22557 net.cpp:91] Creating Layer conv1_p
I0326 21:52:10.342860 22557 net.cpp:425] conv1_p <- data_p
I0326 21:52:10.342872 22557 net.cpp:399] conv1_p -> conv1_p
I0326 21:52:10.344887 22557 net.cpp:141] Setting up conv1_p
I0326 21:52:10.344907 22557 net.cpp:148] Top shape: 256 96 30 14 (10321920)
I0326 21:52:10.344914 22557 net.cpp:156] Memory required for data: 419005440
I0326 21:52:10.344928 22557 net.cpp:485] Sharing parameters 'conv1' owned by layer 'conv1', param index 0
I0326 21:52:10.344938 22557 net.cpp:485] Sharing parameters 'conv1_b' owned by layer 'conv1', param index 1
I0326 21:52:10.344946 22557 layer_factory.hpp:77] Creating layer relu1_p
I0326 21:52:10.344961 22557 net.cpp:91] Creating Layer relu1_p
I0326 21:52:10.344969 22557 net.cpp:425] relu1_p <- conv1_p
I0326 21:52:10.344980 22557 net.cpp:386] relu1_p -> conv1_p (in-place)
I0326 21:52:10.345283 22557 net.cpp:141] Setting up relu1_p
I0326 21:52:10.345301 22557 net.cpp:148] Top shape: 256 96 30 14 (10321920)
I0326 21:52:10.345312 22557 net.cpp:156] Memory required for data: 460293120
I0326 21:52:10.345321 22557 layer_factory.hpp:77] Creating layer norm1_p
I0326 21:52:10.345335 22557 net.cpp:91] Creating Layer norm1_p
I0326 21:52:10.345343 22557 net.cpp:425] norm1_p <- conv1_p
I0326 21:52:10.345355 22557 net.cpp:399] norm1_p -> norm1_p
I0326 21:52:10.345583 22557 net.cpp:141] Setting up norm1_p
I0326 21:52:10.345600 22557 net.cpp:148] Top shape: 256 96 30 14 (10321920)
I0326 21:52:10.345608 22557 net.cpp:156] Memory required for data: 501580800
I0326 21:52:10.345616 22557 layer_factory.hpp:77] Creating layer pool1_p
I0326 21:52:10.345633 22557 net.cpp:91] Creating Layer pool1_p
I0326 21:52:10.345641 22557 net.cpp:425] pool1_p <- norm1_p
I0326 21:52:10.345651 22557 net.cpp:399] pool1_p -> pool1_p
I0326 21:52:10.345703 22557 net.cpp:141] Setting up pool1_p
I0326 21:52:10.345717 22557 net.cpp:148] Top shape: 256 96 15 7 (2580480)
I0326 21:52:10.345724 22557 net.cpp:156] Memory required for data: 511902720
I0326 21:52:10.345732 22557 layer_factory.hpp:77] Creating layer conv2_p
I0326 21:52:10.345752 22557 net.cpp:91] Creating Layer conv2_p
I0326 21:52:10.345767 22557 net.cpp:425] conv2_p <- pool1_p
I0326 21:52:10.345783 22557 net.cpp:399] conv2_p -> conv2_p
I0326 21:52:10.357378 22557 net.cpp:141] Setting up conv2_p
I0326 21:52:10.357399 22557 net.cpp:148] Top shape: 256 256 15 7 (6881280)
I0326 21:52:10.357409 22557 net.cpp:156] Memory required for data: 539427840
I0326 21:52:10.357416 22557 net.cpp:485] Sharing parameters 'conv2' owned by layer 'conv2', param index 0
I0326 21:52:10.357426 22557 net.cpp:485] Sharing parameters 'conv2_b' owned by layer 'conv2', param index 1
I0326 21:52:10.357434 22557 layer_factory.hpp:77] Creating layer relu2_p
I0326 21:52:10.357445 22557 net.cpp:91] Creating Layer relu2_p
I0326 21:52:10.357453 22557 net.cpp:425] relu2_p <- conv2_p
I0326 21:52:10.357466 22557 net.cpp:386] relu2_p -> conv2_p (in-place)
I0326 21:52:10.357779 22557 net.cpp:141] Setting up relu2_p
I0326 21:52:10.357796 22557 net.cpp:148] Top shape: 256 256 15 7 (6881280)
I0326 21:52:10.357805 22557 net.cpp:156] Memory required for data: 566952960
I0326 21:52:10.357812 22557 layer_factory.hpp:77] Creating layer norm2_p
I0326 21:52:10.357831 22557 net.cpp:91] Creating Layer norm2_p
I0326 21:52:10.357841 22557 net.cpp:425] norm2_p <- conv2_p
I0326 21:52:10.357852 22557 net.cpp:399] norm2_p -> norm2_p
I0326 21:52:10.358074 22557 net.cpp:141] Setting up norm2_p
I0326 21:52:10.358091 22557 net.cpp:148] Top shape: 256 256 15 7 (6881280)
I0326 21:52:10.358098 22557 net.cpp:156] Memory required for data: 594478080
I0326 21:52:10.358108 22557 layer_factory.hpp:77] Creating layer pool2_p
I0326 21:52:10.358124 22557 net.cpp:91] Creating Layer pool2_p
I0326 21:52:10.358132 22557 net.cpp:425] pool2_p <- norm2_p
I0326 21:52:10.358142 22557 net.cpp:399] pool2_p -> pool2_p
I0326 21:52:10.358194 22557 net.cpp:141] Setting up pool2_p
I0326 21:52:10.358208 22557 net.cpp:148] Top shape: 256 256 7 3 (1376256)
I0326 21:52:10.358216 22557 net.cpp:156] Memory required for data: 599983104
I0326 21:52:10.358223 22557 layer_factory.hpp:77] Creating layer conv3_p
I0326 21:52:10.358247 22557 net.cpp:91] Creating Layer conv3_p
I0326 21:52:10.358255 22557 net.cpp:425] conv3_p <- pool2_p
I0326 21:52:10.358269 22557 net.cpp:399] conv3_p -> conv3_p
I0326 21:52:10.387032 22557 net.cpp:141] Setting up conv3_p
I0326 21:52:10.387053 22557 net.cpp:148] Top shape: 256 384 7 3 (2064384)
I0326 21:52:10.387061 22557 net.cpp:156] Memory required for data: 608240640
I0326 21:52:10.387070 22557 net.cpp:485] Sharing parameters 'conv3' owned by layer 'conv3', param index 0
I0326 21:52:10.387079 22557 net.cpp:485] Sharing parameters 'conv3_b' owned by layer 'conv3', param index 1
I0326 21:52:10.387087 22557 layer_factory.hpp:77] Creating layer relu3_p
I0326 21:52:10.387101 22557 net.cpp:91] Creating Layer relu3_p
I0326 21:52:10.387110 22557 net.cpp:425] relu3_p <- conv3_p
I0326 21:52:10.387120 22557 net.cpp:386] relu3_p -> conv3_p (in-place)
I0326 21:52:10.387321 22557 net.cpp:141] Setting up relu3_p
I0326 21:52:10.387337 22557 net.cpp:148] Top shape: 256 384 7 3 (2064384)
I0326 21:52:10.387346 22557 net.cpp:156] Memory required for data: 616498176
I0326 21:52:10.387356 22557 layer_factory.hpp:77] Creating layer conv4_p
I0326 21:52:10.387375 22557 net.cpp:91] Creating Layer conv4_p
I0326 21:52:10.387385 22557 net.cpp:425] conv4_p <- conv3_p
I0326 21:52:10.387398 22557 net.cpp:399] conv4_p -> conv4_p
I0326 21:52:10.411322 22557 net.cpp:141] Setting up conv4_p
I0326 21:52:10.411345 22557 net.cpp:148] Top shape: 256 384 7 3 (2064384)
I0326 21:52:10.411353 22557 net.cpp:156] Memory required for data: 624755712
I0326 21:52:10.411362 22557 net.cpp:485] Sharing parameters 'conv4' owned by layer 'conv4', param index 0
I0326 21:52:10.411371 22557 net.cpp:485] Sharing parameters 'conv4_b' owned by layer 'conv4', param index 1
I0326 21:52:10.411380 22557 layer_factory.hpp:77] Creating layer relu4_p
I0326 21:52:10.411389 22557 net.cpp:91] Creating Layer relu4_p
I0326 21:52:10.411397 22557 net.cpp:425] relu4_p <- conv4_p
I0326 21:52:10.411411 22557 net.cpp:386] relu4_p -> conv4_p (in-place)
I0326 21:52:10.411722 22557 net.cpp:141] Setting up relu4_p
I0326 21:52:10.411747 22557 net.cpp:148] Top shape: 256 384 7 3 (2064384)
I0326 21:52:10.411763 22557 net.cpp:156] Memory required for data: 633013248
I0326 21:52:10.411772 22557 layer_factory.hpp:77] Creating layer conv5_p
I0326 21:52:10.411793 22557 net.cpp:91] Creating Layer conv5_p
I0326 21:52:10.411803 22557 net.cpp:425] conv5_p <- conv4_p
I0326 21:52:10.411814 22557 net.cpp:399] conv5_p -> conv5_p
I0326 21:52:10.427572 22557 net.cpp:141] Setting up conv5_p
I0326 21:52:10.427595 22557 net.cpp:148] Top shape: 256 256 7 3 (1376256)
I0326 21:52:10.427604 22557 net.cpp:156] Memory required for data: 638518272
I0326 21:52:10.427613 22557 net.cpp:485] Sharing parameters 'conv5' owned by layer 'conv5', param index 0
I0326 21:52:10.427623 22557 net.cpp:485] Sharing parameters 'conv5_b' owned by layer 'conv5', param index 1
I0326 21:52:10.427630 22557 layer_factory.hpp:77] Creating layer relu5_p
I0326 21:52:10.427642 22557 net.cpp:91] Creating Layer relu5_p
I0326 21:52:10.427650 22557 net.cpp:425] relu5_p <- conv5_p
I0326 21:52:10.427660 22557 net.cpp:386] relu5_p -> conv5_p (in-place)
I0326 21:52:10.427968 22557 net.cpp:141] Setting up relu5_p
I0326 21:52:10.427990 22557 net.cpp:148] Top shape: 256 256 7 3 (1376256)
I0326 21:52:10.427999 22557 net.cpp:156] Memory required for data: 644023296
I0326 21:52:10.428006 22557 layer_factory.hpp:77] Creating layer pool5_p
I0326 21:52:10.428019 22557 net.cpp:91] Creating Layer pool5_p
I0326 21:52:10.428026 22557 net.cpp:425] pool5_p <- conv5_p
I0326 21:52:10.428037 22557 net.cpp:399] pool5_p -> pool5_p
I0326 21:52:10.428092 22557 net.cpp:141] Setting up pool5_p
I0326 21:52:10.428107 22557 net.cpp:148] Top shape: 256 256 3 1 (196608)
I0326 21:52:10.428114 22557 net.cpp:156] Memory required for data: 644809728
I0326 21:52:10.428123 22557 layer_factory.hpp:77] Creating layer ip6_p
I0326 21:52:10.428140 22557 net.cpp:91] Creating Layer ip6_p
I0326 21:52:10.428149 22557 net.cpp:425] ip6_p <- pool5_p
I0326 21:52:10.428159 22557 net.cpp:399] ip6_p -> ip6_p
I0326 21:52:10.477638 22557 net.cpp:141] Setting up ip6_p
I0326 21:52:10.477658 22557 net.cpp:148] Top shape: 256 2048 (524288)
I0326 21:52:10.477668 22557 net.cpp:156] Memory required for data: 646906880
I0326 21:52:10.477675 22557 net.cpp:485] Sharing parameters 'ip6' owned by layer 'ip6', param index 0
I0326 21:52:10.477685 22557 net.cpp:485] Sharing parameters 'ip6_b' owned by layer 'ip6', param index 1
I0326 21:52:10.477692 22557 layer_factory.hpp:77] Creating layer relu6_p
I0326 21:52:10.477705 22557 net.cpp:91] Creating Layer relu6_p
I0326 21:52:10.477713 22557 net.cpp:425] relu6_p <- ip6_p
I0326 21:52:10.477722 22557 net.cpp:386] relu6_p -> ip6_p (in-place)
I0326 21:52:10.477913 22557 net.cpp:141] Setting up relu6_p
I0326 21:52:10.477931 22557 net.cpp:148] Top shape: 256 2048 (524288)
I0326 21:52:10.477938 22557 net.cpp:156] Memory required for data: 649004032
I0326 21:52:10.477947 22557 layer_factory.hpp:77] Creating layer drop6_p
I0326 21:52:10.477960 22557 net.cpp:91] Creating Layer drop6_p
I0326 21:52:10.477970 22557 net.cpp:425] drop6_p <- ip6_p
I0326 21:52:10.477980 22557 net.cpp:386] drop6_p -> ip6_p (in-place)
I0326 21:52:10.478013 22557 net.cpp:141] Setting up drop6_p
I0326 21:52:10.478025 22557 net.cpp:148] Top shape: 256 2048 (524288)
I0326 21:52:10.478032 22557 net.cpp:156] Memory required for data: 651101184
I0326 21:52:10.478040 22557 layer_factory.hpp:77] Creating layer ip7_p
I0326 21:52:10.478057 22557 net.cpp:91] Creating Layer ip7_p
I0326 21:52:10.478066 22557 net.cpp:425] ip7_p <- ip6_p
I0326 21:52:10.478080 22557 net.cpp:399] ip7_p -> ip7_p
I0326 21:52:10.544033 22557 net.cpp:141] Setting up ip7_p
I0326 21:52:10.544055 22557 net.cpp:148] Top shape: 256 1024 (262144)
I0326 21:52:10.544064 22557 net.cpp:156] Memory required for data: 652149760
I0326 21:52:10.544073 22557 net.cpp:485] Sharing parameters 'ip7' owned by layer 'ip7', param index 0
I0326 21:52:10.544082 22557 net.cpp:485] Sharing parameters 'ip7_b' owned by layer 'ip7', param index 1
I0326 21:52:10.544090 22557 layer_factory.hpp:77] Creating layer relu7_p
I0326 21:52:10.544109 22557 net.cpp:91] Creating Layer relu7_p
I0326 21:52:10.544118 22557 net.cpp:425] relu7_p <- ip7_p
I0326 21:52:10.544137 22557 net.cpp:386] relu7_p -> ip7_p (in-place)
I0326 21:52:10.544461 22557 net.cpp:141] Setting up relu7_p
I0326 21:52:10.544482 22557 net.cpp:148] Top shape: 256 1024 (262144)
I0326 21:52:10.544491 22557 net.cpp:156] Memory required for data: 653198336
I0326 21:52:10.544498 22557 layer_factory.hpp:77] Creating layer drop7_p
I0326 21:52:10.544510 22557 net.cpp:91] Creating Layer drop7_p
I0326 21:52:10.544518 22557 net.cpp:425] drop7_p <- ip7_p
I0326 21:52:10.544528 22557 net.cpp:386] drop7_p -> ip7_p (in-place)
I0326 21:52:10.544562 22557 net.cpp:141] Setting up drop7_p
I0326 21:52:10.544576 22557 net.cpp:148] Top shape: 256 1024 (262144)
I0326 21:52:10.544584 22557 net.cpp:156] Memory required for data: 654246912
I0326 21:52:10.544592 22557 layer_factory.hpp:77] Creating layer ip8_p
I0326 21:52:10.544610 22557 net.cpp:91] Creating Layer ip8_p
I0326 21:52:10.544617 22557 net.cpp:425] ip8_p <- ip7_p
I0326 21:52:10.544628 22557 net.cpp:399] ip8_p -> feat_p
I0326 21:52:10.561358 22557 net.cpp:141] Setting up ip8_p
I0326 21:52:10.561378 22557 net.cpp:148] Top shape: 256 512 (131072)
I0326 21:52:10.561386 22557 net.cpp:156] Memory required for data: 654771200
I0326 21:52:10.561396 22557 net.cpp:485] Sharing parameters 'ip8' owned by layer 'ip8', param index 0
I0326 21:52:10.561406 22557 net.cpp:485] Sharing parameters 'ip8_b' owned by layer 'ip8', param index 1
I0326 21:52:10.561414 22557 layer_factory.hpp:77] Creating layer loss
I0326 21:52:10.561436 22557 net.cpp:91] Creating Layer loss
…
I0326 21:52:10.567721 22557 solver.cpp:181] Creating test net (#0) specified by net file: train_val.prototxt
I0326 21:52:10.567812 22557 net.cpp:313] The NetState phase (1) differed from the phase (0) specified by a rule in layer pair_data
I0326 21:52:10.568297 22557 net.cpp:49] Initializing net from parameters: 
name: "AlexNet"
state {
  phase: TEST
}
layer {
  name: "pair_data"
  type: "Data"
  top: "pair_data"
  top: "sim"
  include {
    phase: TEST
  }
  transform_param {
    scale: 0.00390625
  }
  data_param {
    source: "lmdb_reid_test2"
    batch_size: 50
    backend: LMDB
  }
}
layer {
  name: "slice_pair"
  type: "Slice"
  bottom: "pair_data"
  top: "data"
  top: "data_p"
  slice_param {
    slice_dim: 1
    slice_point: 3
  }
}
layer {
  name: "conv1"
  type: "Convolution"
  bottom: "data"
  top: "conv1"
  param {
    name: "conv1"
    lr_mult: 1
    decay_mult: 1
  }
  param {
    name: "conv1_b"
    lr_mult: 2
    decay_mult: 0
  }
  convolution_param {
    num_output: 96
    kernel_size: 11
    stride: 4
    weight_filler {
      type: "gaussian"
      std: 0.01
    }
    bias_filler {
      type: "constant"
      value: 0
    }
  }
}
layer {
  name: "relu1"
  type: "ReLU"
  bottom: "conv1"
  top: "conv1"
}
layer {
  name: "norm1"
  type: "LRN"
  bottom: "conv1"
  top: "norm1"
  lrn_param {
    local_size: 5
    alpha: 0.0001
    beta: 0.75
  }
}
layer {
  name: "pool1"
  type: "Pooling"
  bottom: "norm1"
  top: "pool1"
  pooling_param {
    pool: MAX
    kernel_size: 3
    stride: 2
  }
}
layer {
  name: "conv2"
  type: "Convolution"
  bottom: "pool1"
  top: "conv2"
  param {
    name: "conv2"
    lr_mult: 1
    decay_mult: 1
  }
  param {
    name: "conv2_b"
    lr_mult: 2
    decay_mult: 0
  }
  convolution_param {
    num_output: 256
    pad: 2
    kernel_size: 5
    group: 2
    weight_filler {
      type: "gaussian"
      std: 0.01
    }
    bias_filler {
      type: "constant"
      value: 0.1
    }
  }
}
layer {
  name: "relu2"
  type: "ReLU"
  bottom: "conv2"
  top: "conv2"
}
layer {
  name: "norm2"
  type: "LRN"
  bottom: "conv2"
  top: "norm2"
  lrn_param {
    local_size: 5
    alpha: 0.0001
    beta: 0.75
  }
}
layer {
  name: "pool2"
  type: "Pooling"
  bottom: "norm2"
  top: "pool2"
  pooling_param {
    pool: MAX
    kernel_size: 3
    stride: 2
  }
}
layer {
  name: "conv3"
  type: "Convolution"
  bottom: "pool2"
  top: "conv3"
  param {
    name: "conv3"
    lr_mult: 1
    decay_mult: 1
  }
  param {
    name: "conv3_b"
    lr_mult: 2
    decay_mult: 0
  }
  convolution_param {
    num_output: 384
    pad: 1
    kernel_size: 3
    weight_filler {
      type: "gaussian"
      std: 0.01
    }
    bias_filler {
      type: "constant"
      value: 0
    }
  }
}
layer {
  name: "relu3"
  type: "ReLU"
  bottom: "conv3"
  top: "conv3"
}
layer {
  name: "conv4"
  type: "Convolution"
  bottom: "conv3"
  top: "conv4"
  param {
    name: "conv4"
    lr_mult: 1
    decay_mult: 1
  }
  param {
    name: "conv4_b"
    lr_mult: 2
    decay_mult: 0
  }
  convolution_param {
    num_output: 384
    pad: 1
    kernel_size: 3
    group: 2
    weight_filler {
      type: "gaussian"
      std: 0.01
    }
    bias_filler {
      type: "constant"
      value: 0.1
    }
  }
}
layer {
  name: "relu4"
  type: "ReLU"
  bottom: "conv4"
  top: "conv4"
}
layer {
  name: "conv5"
  type: "Convolution"
  bottom: "conv4"
  top: "conv5"
  param {
    name: "conv5"
    lr_mult: 1
    decay_mult: 1
  }
  param {
    name: "conv5_b"
    lr_mult: 2
    decay_mult: 0
  }
  convolution_param {
    num_output: 256
    pad: 1
    kernel_size: 3
    group: 2
    weight_filler {
      type: "gaussian"
      std: 0.01
    }
    bias_filler {
      type: "constant"
      value: 0.1
    }
  }
}
layer {
  name: "relu5"
  type: "ReLU"
  bottom: "conv5"
  top: "conv5"
}
layer {
  name: "pool5"
  type: "Pooling"
  bottom: "conv5"
  top: "pool5"
  pooling_param {
    pool: MAX
    kernel_size: 3
    stride: 2
  }
}
layer {
  name: "ip6"
  type: "InnerProduct"
  bottom: "pool5"
  top: "ip6"
  param {
    name: "ip6"
    lr_mult: 1
    decay_mult: 1
  }
  param {
    name: "ip6_b"
    lr_mult: 2
    decay_mult: 0
  }
  inner_product_param {
    num_output: 2048
    weight_filler {
      type: "gaussian"
      std: 0.005
    }
    bias_filler {
      type: "constant"
      value: 0.1
    }
  }
}
layer {
  name: "relu6"
  type: "ReLU"
  bottom: "ip6"
  top: "ip6"
}
layer {
  name: "drop6"
  type: "Dropout"
  bottom: "ip6"
  top: "ip6"
  dropout_param {
    dropout_ratio: 0.5
  }
}
layer {
  name: "ip7"
  type: "InnerProduct"
  bottom: "ip6"
  top: "ip7"
  param {
    name: "ip7"
    lr_mult: 1
    decay_mult: 1
  }
  param {
    name: "ip7_b"
    lr_mult: 2
    decay_mult: 0
  }
  inner_product_param {
    num_output: 1024
    weight_filler {
      type: "gaussian"
      std: 0.005
    }
    bias_filler {
      type: "constant"
      value: 0.1
    }
  }
}
layer {
  name: "relu7"
  type: "ReLU"
  bottom: "ip7"
  top: "ip7"
}
layer {
  name: "drop7"
  type: "Dropout"
  bottom: "ip7"
  top: "ip7"
  dropout_param {
    dropout_ratio: 0.5
  }
}
layer {
  name: "ip8"
  type: "InnerProduct"
  bottom: "ip7"
  top: "feat"
  param {
    name: "ip8"
    lr_mult: 1
    decay_mult: 1
  }
  param {
    name: "ip8_b"
    lr_mult: 2
    decay_mult: 0
  }
  inner_product_param {
    num_output: 512
    weight_filler {
      type: "gaussian"
      std: 0.01
    }
    bias_filler {
      type: "constant"
      value: 0
    }
  }
}
layer {
  name: "conv1_p"
  type: "Convolution"
  bottom: "data_p"
  top: "conv1_p"
  param {
    name: "conv1"
    lr_mult: 1
    decay_mult: 1
  }
  param {
    name: "conv1_b"
    lr_mult: 2
    decay_mult: 0
  }
  convolution_param {
    num_output: 96
    kernel_size: 11
    stride: 4
    weight_filler {
      type: "gaussian"
      std: 0.01
    }
    bias_filler {
      type: "constant"
      value: 0
    }
  }
}
layer {
  name: "relu1_p"
  type: "ReLU"
  bottom: "conv1_p"
  top: "conv1_p"
}
layer {
  name: "norm1_p"
  type: "LRN"
  bottom: "conv1_p"
  top: "norm1_p"
  lrn_param {
    local_size: 5
    alpha: 0.0001
    beta: 0.75
  }
}
layer {
  name: "pool1_p"
  type: "Pooling"
  bottom: "norm1_p"
  top: "pool1_p"
  pooling_param {
    pool: MAX
    kernel_size: 3
    stride: 2
  }
}
layer {
  name: "conv2_p"
  type: "Convolution"
  bottom: "pool1_p"
  top: "conv2_p"
  param {
    name: "conv2"
    lr_mult: 1
    decay_mult: 1
  }
  param {
    name: "conv2_b"
    lr_mult: 2
    decay_mult: 0
  }
  convolution_param {
    num_output: 256
    pad: 2
    kernel_size: 5
    group: 2
    weight_filler {
      type: "gaussian"
      std: 0.01
    }
    bias_filler {
      type: "constant"
      value: 0.1
    }
  }
}
layer {
  name: "relu2_p"
  type: "ReLU"
  bottom: "conv2_p"
  top: "conv2_p"
}
layer {
  name: "norm2_p"
  type: "LRN"
  bottom: "conv2_p"
  top: "norm2_p"
  lrn_param {
    local_size: 5
    alpha: 0.0001
    beta: 0.75
  }
}
layer {
  name: "pool2_p"
  type: "Pooling"
  bottom: "norm2_p"
  top: "pool2_p"
  pooling_param {
    pool: MAX
    kernel_size: 3
    stride: 2
  }
}
layer {
  name: "conv3_p"
  type: "Convolution"
  bottom: "pool2_p"
  top: "conv3_p"
  param {
    name: "conv3"
    lr_mult: 1
    decay_mult: 1
  }
  param {
    name: "conv3_b"
    lr_mult: 2
    decay_mult: 0
  }
  convolution_param {
    num_output: 384
    pad: 1
    kernel_size: 3
    weight_filler {
      type: "gaussian"
      std: 0.01
    }
    bias_filler {
      type: "constant"
      value: 0
    }
  }
}
layer {
  name: "relu3_p"
  type: "ReLU"
  bottom: "conv3_p"
  top: "conv3_p"
}
layer {
  name: "conv4_p"
  type: "Convolution"
  bottom: "conv3_p"
  top: "conv4_p"
  param {
    name: "conv4"
    lr_mult: 1
    decay_mult: 1
  }
  param {
    name: "conv4_b"
    lr_mult: 2
    decay_mult: 0
  }
  convolution_param {
    num_output: 384
    pad: 1
    kernel_size: 3
    group: 2
    weight_filler {
      type: "gaussian"
      std: 0.01
    }
    bias_filler {
      type: "constant"
      value: 0.1
    }
  }
}
layer {
  name: "relu4_p"
  type: "ReLU"
  bottom: "conv4_p"
  top: "conv4_p"
}
layer {
  name: "conv5_p"
  type: "Convolution"
  bottom: "conv4_p"
  top: "conv5_p"
  param {
    name: "conv5"
    lr_mult: 1
    decay_mult: 1
  }
  param {
    name: "conv5_b"
    lr_mult: 2
    decay_mult: 0
  }
  convolution_param {
    num_output: 256
    pad: 1
    kernel_size: 3
    group: 2
    weight_filler {
      type: "gaussian"
      std: 0.01
    }
    bias_filler {
      type: "constant"
      value: 0.1
    }
  }
}
layer {
  name: "relu5_p"
  type: "ReLU"
  bottom: "conv5_p"
  top: "conv5_p"
}
layer {
  name: "pool5_p"
  type: "Pooling"
  bottom: "conv5_p"
  top: "pool5_p"
  pooling_param {
    pool: MAX
    kernel_size: 3
    stride: 2
  }
}
layer {
  name: "ip6_p"
  type: "InnerProduct"
  bottom: "pool5_p"
  top: "ip6_p"
  param {
    name: "ip6"
    lr_mult: 1
    decay_mult: 1
  }
  param {
    name: "ip6_b"
    lr_mult: 2
    decay_mult: 0
  }
  inner_product_param {
    num_output: 2048
    weight_filler {
      type: "gaussian"
      std: 0.005
    }
    bias_filler {
      type: "constant"
      value: 0.1
    }
  }
}
layer {
  name: "relu6_p"
  type: "ReLU"
  bottom: "ip6_p"
  top: "ip6_p"
}
layer {
  name: "drop6_p"
  type: "Dropout"
  bottom: "ip6_p"
  top: "ip6_p"
  dropout_param {
    dropout_ratio: 0.5
  }
}
layer {
  name: "ip7_p"
  type: "InnerProduct"
  bottom: "ip6_p"
  top: "ip7_p"
  param {
    name: "ip7"
    lr_mult: 1
    decay_mult: 1
  }
  param {
    name: "ip7_b"
    lr_mult: 2
    decay_mult: 0
  }
  inner_product_param {
    num_output: 1024
    weight_filler {
      type: "gaussian"
      std: 0.005
    }
    bias_filler {
      type: "constant"
      value: 0.1
    }
  }
}
layer {
  name: "relu7_p"
  type: "ReLU"
  bottom: "ip7_p"
  top: "ip7_p"
}
layer {
  name: "drop7_p"
  type: "Dropout"
  bottom: "ip7_p"
  top: "ip7_p"
  dropout_param {
    dropout_ratio: 0.5
  }
}
layer {
  name: "ip8_p"
  type: "InnerProduct"
  bottom: "ip7_p"
  top: "feat_p"
  param {
    name: "ip8"
    lr_mult: 1
    decay_mult: 1
  }
  param {
    name: "ip8_b"
    lr_mult: 2
    decay_mult: 0
  }
  inner_product_param {
    num_output: 512
    weight_filler {
      type: "gaussian"
      std: 0.01
    }
    bias_filler {
      type: "constant"
      value: 0
    }
  }
}
layer {
  name: "loss"
  type: "ContrastiveLoss"
  bottom: "feat"
  bottom: "feat_p"
  bottom: "sim"
  top: "loss"
  contrastive_loss_param {
    margin: 1
  }
}
I0326 21:52:10.568490 22557 layer_factory.hpp:77] Creating layer pair_data
I0326 21:52:10.568610 22557 net.cpp:91] Creating Layer pair_data
I0326 21:52:10.568626 22557 net.cpp:399] pair_data -> pair_data
I0326 21:52:10.568641 22557 net.cpp:399] pair_data -> sim
I0326 21:52:10.570778 22585 db_lmdb.cpp:38] Opened lmdb lmdb_reid_test2
I0326 21:52:10.571244 22557 data_layer.cpp:41] output data size: 50,6,128,64
I0326 21:52:10.587404 22557 net.cpp:141] Setting up pair_data
I0326 21:52:10.587460 22557 net.cpp:148] Top shape: 50 6 128 64 (2457600)
I0326 21:52:10.587471 22557 net.cpp:148] Top shape: 50 (50)
I0326 21:52:10.587479 22557 net.cpp:156] Memory required for data: 9830600
I0326 21:52:10.587491 22557 layer_factory.hpp:77] Creating layer slice_pair
I0326 21:52:10.587512 22557 net.cpp:91] Creating Layer slice_pair
I0326 21:52:10.587522 22557 net.cpp:425] slice_pair <- pair_data
I0326 21:52:10.587616 22557 net.cpp:399] slice_pair -> data
I0326 21:52:10.587641 22557 net.cpp:399] slice_pair -> data_p
I0326 21:52:10.587776 22557 net.cpp:141] Setting up slice_pair
I0326 21:52:10.587793 22557 net.cpp:148] Top shape: 50 3 128 64 (1228800)
I0326 21:52:10.587802 22557 net.cpp:148] Top shape: 50 3 128 64 (1228800)
I0326 21:52:10.587810 22557 net.cpp:156] Memory required for data: 19661000
I0326 21:52:10.587817 22557 layer_factory.hpp:77] Creating layer conv1
I0326 21:52:10.587843 22557 net.cpp:91] Creating Layer conv1
I0326 21:52:10.587852 22557 net.cpp:425] conv1 <- data
I0326 21:52:10.587865 22557 net.cpp:399] conv1 -> conv1
I0326 21:52:10.591394 22557 net.cpp:141] Setting up conv1
I0326 21:52:10.591426 22557 net.cpp:148] Top shape: 50 96 30 14 (2016000)
I0326 21:52:10.591436 22557 net.cpp:156] Memory required for data: 27725000
I0326 21:52:10.591454 22557 layer_factory.hpp:77] Creating layer relu1
I0326 21:52:10.591467 22557 net.cpp:91] Creating Layer relu1
I0326 21:52:10.591476 22557 net.cpp:425] relu1 <- conv1
I0326 21:52:10.591486 22557 net.cpp:386] relu1 -> conv1 (in-place)
I0326 21:52:10.591718 22557 net.cpp:141] Setting up relu1
I0326 21:52:10.591737 22557 net.cpp:148] Top shape: 50 96 30 14 (2016000)
I0326 21:52:10.591744 22557 net.cpp:156] Memory required for data: 35789000
I0326 21:52:10.591753 22557 layer_factory.hpp:77] Creating layer norm1
I0326 21:52:10.591771 22557 net.cpp:91] Creating Layer norm1
I0326 21:52:10.591780 22557 net.cpp:425] norm1 <- conv1
I0326 21:52:10.591790 22557 net.cpp:399] norm1 -> norm1
I0326 21:52:10.592185 22557 net.cpp:141] Setting up norm1
I0326 21:52:10.592206 22557 net.cpp:148] Top shape: 50 96 30 14 (2016000)
I0326 21:52:10.592214 22557 net.cpp:156] Memory required for data: 43853000
I0326 21:52:10.592222 22557 layer_factory.hpp:77] Creating layer pool1
I0326 21:52:10.592236 22557 net.cpp:91] Creating Layer pool1
I0326 21:52:10.592244 22557 net.cpp:425] pool1 <- norm1
I0326 21:52:10.592255 22557 net.cpp:399] pool1 -> pool1
I0326 21:52:10.592314 22557 net.cpp:141] Setting up pool1
I0326 21:52:10.592329 22557 net.cpp:148] Top shape: 50 96 15 7 (504000)
I0326 21:52:10.592337 22557 net.cpp:156] Memory required for data: 45869000
I0326 21:52:10.592344 22557 layer_factory.hpp:77] Creating layer conv2
I0326 21:52:10.592365 22557 net.cpp:91] Creating Layer conv2
I0326 21:52:10.592378 22557 net.cpp:425] conv2 <- pool1
I0326 21:52:10.592391 22557 net.cpp:399] conv2 -> conv2
I0326 21:52:10.605043 22557 net.cpp:141] Setting up conv2
I0326 21:52:10.605067 22557 net.cpp:148] Top shape: 50 256 15 7 (1344000)
I0326 21:52:10.605077 22557 net.cpp:156] Memory required for data: 51245000
I0326 21:52:10.605092 22557 layer_factory.hpp:77] Creating layer relu2
I0326 21:52:10.605103 22557 net.cpp:91] Creating Layer relu2
I0326 21:52:10.605113 22557 net.cpp:425] relu2 <- conv2
I0326 21:52:10.605125 22557 net.cpp:386] relu2 -> conv2 (in-place)
I0326 21:52:10.605455 22557 net.cpp:141] Setting up relu2
I0326 21:52:10.605475 22557 net.cpp:148] Top shape: 50 256 15 7 (1344000)
I0326 21:52:10.605486 22557 net.cpp:156] Memory required for data: 56621000
I0326 21:52:10.605495 22557 layer_factory.hpp:77] Creating layer norm2
I0326 21:52:10.605520 22557 net.cpp:91] Creating Layer norm2
I0326 21:52:10.605530 22557 net.cpp:425] norm2 <- conv2
I0326 21:52:10.605554 22557 net.cpp:399] norm2 -> norm2
I0326 21:52:10.605806 22557 net.cpp:141] Setting up norm2
I0326 21:52:10.605825 22557 net.cpp:148] Top shape: 50 256 15 7 (1344000)
I0326 21:52:10.605834 22557 net.cpp:156] Memory required for data: 61997000
I0326 21:52:10.605841 22557 layer_factory.hpp:77] Creating layer pool2
I0326 21:52:10.605857 22557 net.cpp:91] Creating Layer pool2
I0326 21:52:10.605866 22557 net.cpp:425] pool2 <- norm2
I0326 21:52:10.605877 22557 net.cpp:399] pool2 -> pool2
I0326 21:52:10.605933 22557 net.cpp:141] Setting up pool2
I0326 21:52:10.605948 22557 net.cpp:148] Top shape: 50 256 7 3 (268800)
I0326 21:52:10.605955 22557 net.cpp:156] Memory required for data: 63072200
I0326 21:52:10.605963 22557 layer_factory.hpp:77] Creating layer conv3
I0326 21:52:10.605983 22557 net.cpp:91] Creating Layer conv3
I0326 21:52:10.605993 22557 net.cpp:425] conv3 <- pool2
I0326 21:52:10.606014 22557 net.cpp:399] conv3 -> conv3
I0326 21:52:10.635342 22557 net.cpp:141] Setting up conv3
I0326 21:52:10.635365 22557 net.cpp:148] Top shape: 50 384 7 3 (403200)
I0326 21:52:10.635373 22557 net.cpp:156] Memory required for data: 64685000
I0326 21:52:10.635387 22557 layer_factory.hpp:77] Creating layer relu3
I0326 21:52:10.635402 22557 net.cpp:91] Creating Layer relu3
I0326 21:52:10.635411 22557 net.cpp:425] relu3 <- conv3
I0326 21:52:10.635421 22557 net.cpp:386] relu3 -> conv3 (in-place)
I0326 21:52:10.635740 22557 net.cpp:141] Setting up relu3
I0326 21:52:10.635759 22557 net.cpp:148] Top shape: 50 384 7 3 (403200)
I0326 21:52:10.635768 22557 net.cpp:156] Memory required for data: 66297800
I0326 21:52:10.635776 22557 layer_factory.hpp:77] Creating layer conv4
I0326 21:52:10.635794 22557 net.cpp:91] Creating Layer conv4
I0326 21:52:10.635803 22557 net.cpp:425] conv4 <- conv3
I0326 21:52:10.635815 22557 net.cpp:399] conv4 -> conv4
I0326 21:52:10.658413 22557 net.cpp:141] Setting up conv4
I0326 21:52:10.658435 22557 net.cpp:148] Top shape: 50 384 7 3 (403200)
I0326 21:52:10.658444 22557 net.cpp:156] Memory required for data: 67910600
I0326 21:52:10.658455 22557 layer_factory.hpp:77] Creating layer relu4
I0326 21:52:10.658466 22557 net.cpp:91] Creating Layer relu4
I0326 21:52:10.658474 22557 net.cpp:425] relu4 <- conv4
I0326 21:52:10.658484 22557 net.cpp:386] relu4 -> conv4 (in-place)
I0326 21:52:10.658818 22557 net.cpp:141] Setting up relu4
I0326 21:52:10.658838 22557 net.cpp:148] Top shape: 50 384 7 3 (403200)
I0326 21:52:10.658845 22557 net.cpp:156] Memory required for data: 69523400
I0326 21:52:10.658854 22557 layer_factory.hpp:77] Creating layer conv5
I0326 21:52:10.658871 22557 net.cpp:91] Creating Layer conv5
I0326 21:52:10.658881 22557 net.cpp:425] conv5 <- conv4
I0326 21:52:10.658895 22557 net.cpp:399] conv5 -> conv5
I0326 21:52:10.674526 22557 net.cpp:141] Setting up conv5
I0326 21:52:10.674547 22557 net.cpp:148] Top shape: 50 256 7 3 (268800)
I0326 21:52:10.674556 22557 net.cpp:156] Memory required for data: 70598600
I0326 21:52:10.674571 22557 layer_factory.hpp:77] Creating layer relu5
I0326 21:52:10.674583 22557 net.cpp:91] Creating Layer relu5
I0326 21:52:10.674592 22557 net.cpp:425] relu5 <- conv5
I0326 21:52:10.674602 22557 net.cpp:386] relu5 -> conv5 (in-place)
I0326 21:52:10.674934 22557 net.cpp:141] Setting up relu5
I0326 21:52:10.674952 22557 net.cpp:148] Top shape: 50 256 7 3 (268800)
I0326 21:52:10.674962 22557 net.cpp:156] Memory required for data: 71673800
I0326 21:52:10.674969 22557 layer_factory.hpp:77] Creating layer pool5
I0326 21:52:10.674985 22557 net.cpp:91] Creating Layer pool5
I0326 21:52:10.674994 22557 net.cpp:425] pool5 <- conv5
I0326 21:52:10.675010 22557 net.cpp:399] pool5 -> pool5
I0326 21:52:10.675070 22557 net.cpp:141] Setting up pool5
I0326 21:52:10.675087 22557 net.cpp:148] Top shape: 50 256 3 1 (38400)
I0326 21:52:10.675096 22557 net.cpp:156] Memory required for data: 71827400
I0326 21:52:10.675103 22557 layer_factory.hpp:77] Creating layer ip6
I0326 21:52:10.675123 22557 net.cpp:91] Creating Layer ip6
I0326 21:52:10.675132 22557 net.cpp:425] ip6 <- pool5
I0326 21:52:10.675154 22557 net.cpp:399] ip6 -> ip6
I0326 21:52:10.724409 22557 net.cpp:141] Setting up ip6
I0326 21:52:10.724436 22557 net.cpp:148] Top shape: 50 2048 (102400)
I0326 21:52:10.724444 22557 net.cpp:156] Memory required for data: 72237000
I0326 21:52:10.724457 22557 layer_factory.hpp:77] Creating layer relu6
I0326 21:52:10.724467 22557 net.cpp:91] Creating Layer relu6
I0326 21:52:10.724477 22557 net.cpp:425] relu6 <- ip6
I0326 21:52:10.724489 22557 net.cpp:386] relu6 -> ip6 (in-place)
I0326 21:52:10.724699 22557 net.cpp:141] Setting up relu6
I0326 21:52:10.724714 22557 net.cpp:148] Top shape: 50 2048 (102400)
I0326 21:52:10.724722 22557 net.cpp:156] Memory required for data: 72646600
I0326 21:52:10.724730 22557 layer_factory.hpp:77] Creating layer drop6
I0326 21:52:10.724746 22557 net.cpp:91] Creating Layer drop6
I0326 21:52:10.724755 22557 net.cpp:425] drop6 <- ip6
I0326 21:52:10.724764 22557 net.cpp:386] drop6 -> ip6 (in-place)
I0326 21:52:10.724807 22557 net.cpp:141] Setting up drop6
I0326 21:52:10.724822 22557 net.cpp:148] Top shape: 50 2048 (102400)
I0326 21:52:10.724828 22557 net.cpp:156] Memory required for data: 73056200
I0326 21:52:10.724836 22557 layer_factory.hpp:77] Creating layer ip7
I0326 21:52:10.724848 22557 net.cpp:91] Creating Layer ip7
I0326 21:52:10.724856 22557 net.cpp:425] ip7 <- ip6
I0326 21:52:10.724869 22557 net.cpp:399] ip7 -> ip7
I0326 21:52:10.790596 22557 net.cpp:141] Setting up ip7
I0326 21:52:10.790662 22557 net.cpp:148] Top shape: 50 1024 (51200)
I0326 21:52:10.790670 22557 net.cpp:156] Memory required for data: 73261000
I0326 21:52:10.790691 22557 layer_factory.hpp:77] Creating layer relu7
I0326 21:52:10.790711 22557 net.cpp:91] Creating Layer relu7
I0326 21:52:10.790722 22557 net.cpp:425] relu7 <- ip7
I0326 21:52:10.790740 22557 net.cpp:386] relu7 -> ip7 (in-place)
I0326 21:52:10.791265 22557 net.cpp:141] Setting up relu7
I0326 21:52:10.791283 22557 net.cpp:148] Top shape: 50 1024 (51200)
I0326 21:52:10.791291 22557 net.cpp:156] Memory required for data: 73465800
I0326 21:52:10.791299 22557 layer_factory.hpp:77] Creating layer drop7
I0326 21:52:10.791313 22557 net.cpp:91] Creating Layer drop7
I0326 21:52:10.791322 22557 net.cpp:425] drop7 <- ip7
I0326 21:52:10.791334 22557 net.cpp:386] drop7 -> ip7 (in-place)
I0326 21:52:10.791378 22557 net.cpp:141] Setting up drop7
I0326 21:52:10.791393 22557 net.cpp:148] Top shape: 50 1024 (51200)
I0326 21:52:10.791399 22557 net.cpp:156] Memory required for data: 73670600
I0326 21:52:10.791407 22557 layer_factory.hpp:77] Creating layer ip8
I0326 21:52:10.791427 22557 net.cpp:91] Creating Layer ip8
I0326 21:52:10.791436 22557 net.cpp:425] ip8 <- ip7
I0326 21:52:10.791450 22557 net.cpp:399] ip8 -> feat
I0326 21:52:10.808130 22557 net.cpp:141] Setting up ip8
I0326 21:52:10.808176 22557 net.cpp:148] Top shape: 50 512 (25600)
I0326 21:52:10.808184 22557 net.cpp:156] Memory required for data: 73773000
I0326 21:52:10.808200 22557 layer_factory.hpp:77] Creating layer conv1_p
I0326 21:52:10.808228 22557 net.cpp:91] Creating Layer conv1_p
I0326 21:52:10.808238 22557 net.cpp:425] conv1_p <- data_p
I0326 21:52:10.808253 22557 net.cpp:399] conv1_p -> conv1_p
I0326 21:52:10.810689 22557 net.cpp:141] Setting up conv1_p
I0326 21:52:10.810711 22557 net.cpp:148] Top shape: 50 96 30 14 (2016000)
I0326 21:52:10.810720 22557 net.cpp:156] Memory required for data: 81837000
I0326 21:52:10.810737 22557 net.cpp:485] Sharing parameters 'conv1' owned by layer 'conv1', param index 0
I0326 21:52:10.810748 22557 net.cpp:485] Sharing parameters 'conv1_b' owned by layer 'conv1', param index 1
I0326 21:52:10.810756 22557 layer_factory.hpp:77] Creating layer relu1_p
I0326 21:52:10.810770 22557 net.cpp:91] Creating Layer relu1_p
I0326 21:52:10.810778 22557 net.cpp:425] relu1_p <- conv1_p
I0326 21:52:10.810791 22557 net.cpp:386] relu1_p -> conv1_p (in-place)
I0326 21:52:10.810983 22557 net.cpp:141] Setting up relu1_p
I0326 21:52:10.810999 22557 net.cpp:148] Top shape: 50 96 30 14 (2016000)
I0326 21:52:10.811019 22557 net.cpp:156] Memory required for data: 89901000
I0326 21:52:10.811040 22557 layer_factory.hpp:77] Creating layer norm1_p
I0326 21:52:10.811059 22557 net.cpp:91] Creating Layer norm1_p
I0326 21:52:10.811069 22557 net.cpp:425] norm1_p <- conv1_p
I0326 21:52:10.811079 22557 net.cpp:399] norm1_p -> norm1_p
I0326 21:52:10.811435 22557 net.cpp:141] Setting up norm1_p
I0326 21:52:10.811453 22557 net.cpp:148] Top shape: 50 96 30 14 (2016000)
I0326 21:52:10.811461 22557 net.cpp:156] Memory required for data: 97965000
I0326 21:52:10.811470 22557 layer_factory.hpp:77] Creating layer pool1_p
I0326 21:52:10.811486 22557 net.cpp:91] Creating Layer pool1_p
I0326 21:52:10.811494 22557 net.cpp:425] pool1_p <- norm1_p
I0326 21:52:10.811507 22557 net.cpp:399] pool1_p -> pool1_p
I0326 21:52:10.811568 22557 net.cpp:141] Setting up pool1_p
I0326 21:52:10.811581 22557 net.cpp:148] Top shape: 50 96 15 7 (504000)
I0326 21:52:10.811589 22557 net.cpp:156] Memory required for data: 99981000
I0326 21:52:10.811596 22557 layer_factory.hpp:77] Creating layer conv2_p
I0326 21:52:10.811615 22557 net.cpp:91] Creating Layer conv2_p
I0326 21:52:10.811625 22557 net.cpp:425] conv2_p <- pool1_p
I0326 21:52:10.811637 22557 net.cpp:399] conv2_p -> conv2_p
I0326 21:52:10.826406 22557 net.cpp:141] Setting up conv2_p
I0326 21:52:10.826458 22557 net.cpp:148] Top shape: 50 256 15 7 (1344000)
I0326 21:52:10.826468 22557 net.cpp:156] Memory required for data: 105357000
I0326 21:52:10.826493 22557 net.cpp:485] Sharing parameters 'conv2' owned by layer 'conv2', param index 0
I0326 21:52:10.826515 22557 net.cpp:485] Sharing parameters 'conv2_b' owned by layer 'conv2', param index 1
I0326 21:52:10.826529 22557 layer_factory.hpp:77] Creating layer relu2_p
I0326 21:52:10.826565 22557 net.cpp:91] Creating Layer relu2_p
I0326 21:52:10.826584 22557 net.cpp:425] relu2_p <- conv2_p
I0326 21:52:10.826596 22557 net.cpp:386] relu2_p -> conv2_p (in-place)
I0326 21:52:10.826939 22557 net.cpp:141] Setting up relu2_p
I0326 21:52:10.826957 22557 net.cpp:148] Top shape: 50 256 15 7 (1344000)
I0326 21:52:10.826967 22557 net.cpp:156] Memory required for data: 110733000
I0326 21:52:10.826974 22557 layer_factory.hpp:77] Creating layer norm2_p
I0326 21:52:10.826988 22557 net.cpp:91] Creating Layer norm2_p
I0326 21:52:10.826997 22557 net.cpp:425] norm2_p <- conv2_p
I0326 21:52:10.827009 22557 net.cpp:399] norm2_p -> norm2_p
I0326 21:52:10.827391 22557 net.cpp:141] Setting up norm2_p
I0326 21:52:10.827409 22557 net.cpp:148] Top shape: 50 256 15 7 (1344000)
I0326 21:52:10.827420 22557 net.cpp:156] Memory required for data: 116109000
I0326 21:52:10.827428 22557 layer_factory.hpp:77] Creating layer pool2_p
I0326 21:52:10.827440 22557 net.cpp:91] Creating Layer pool2_p
I0326 21:52:10.827448 22557 net.cpp:425] pool2_p <- norm2_p
I0326 21:52:10.827464 22557 net.cpp:399] pool2_p -> pool2_p
I0326 21:52:10.827527 22557 net.cpp:141] Setting up pool2_p
I0326 21:52:10.827543 22557 net.cpp:148] Top shape: 50 256 7 3 (268800)
I0326 21:52:10.827549 22557 net.cpp:156] Memory required for data: 117184200
I0326 21:52:10.827558 22557 layer_factory.hpp:77] Creating layer conv3_p
I0326 21:52:10.827600 22557 net.cpp:91] Creating Layer conv3_p
I0326 21:52:10.827611 22557 net.cpp:425] conv3_p <- pool2_p
I0326 21:52:10.827623 22557 net.cpp:399] conv3_p -> conv3_p
I0326 21:52:10.856559 22557 net.cpp:141] Setting up conv3_p
I0326 21:52:10.856581 22557 net.cpp:148] Top shape: 50 384 7 3 (403200)
I0326 21:52:10.856590 22557 net.cpp:156] Memory required for data: 118797000
I0326 21:52:10.856598 22557 net.cpp:485] Sharing parameters 'conv3' owned by layer 'conv3', param index 0
I0326 21:52:10.856607 22557 net.cpp:485] Sharing parameters 'conv3_b' owned by layer 'conv3', param index 1
I0326 21:52:10.856616 22557 layer_factory.hpp:77] Creating layer relu3_p
I0326 21:52:10.856633 22557 net.cpp:91] Creating Layer relu3_p
I0326 21:52:10.856642 22557 net.cpp:425] relu3_p <- conv3_p
I0326 21:52:10.856654 22557 net.cpp:386] relu3_p -> conv3_p (in-place)
I0326 21:52:10.857007 22557 net.cpp:141] Setting up relu3_p
I0326 21:52:10.857024 22557 net.cpp:148] Top shape: 50 384 7 3 (403200)
I0326 21:52:10.857043 22557 net.cpp:156] Memory required for data: 120409800
I0326 21:52:10.857053 22557 layer_factory.hpp:77] Creating layer conv4_p
I0326 21:52:10.857070 22557 net.cpp:91] Creating Layer conv4_p
I0326 21:52:10.857080 22557 net.cpp:425] conv4_p <- conv3_p
I0326 21:52:10.857094 22557 net.cpp:399] conv4_p -> conv4_p
I0326 21:52:10.879737 22557 net.cpp:141] Setting up conv4_p
I0326 21:52:10.879760 22557 net.cpp:148] Top shape: 50 384 7 3 (403200)
I0326 21:52:10.879768 22557 net.cpp:156] Memory required for data: 122022600
I0326 21:52:10.879776 22557 net.cpp:485] Sharing parameters 'conv4' owned by layer 'conv4', param index 0
I0326 21:52:10.879786 22557 net.cpp:485] Sharing parameters 'conv4_b' owned by layer 'conv4', param index 1
I0326 21:52:10.879794 22557 layer_factory.hpp:77] Creating layer relu4_p
I0326 21:52:10.879803 22557 net.cpp:91] Creating Layer relu4_p
I0326 21:52:10.879812 22557 net.cpp:425] relu4_p <- conv4_p
I0326 21:52:10.879822 22557 net.cpp:386] relu4_p -> conv4_p (in-place)
I0326 21:52:10.880151 22557 net.cpp:141] Setting up relu4_p
I0326 21:52:10.880169 22557 net.cpp:148] Top shape: 50 384 7 3 (403200)
I0326 21:52:10.880177 22557 net.cpp:156] Memory required for data: 123635400
I0326 21:52:10.880185 22557 layer_factory.hpp:77] Creating layer conv5_p
I0326 21:52:10.880203 22557 net.cpp:91] Creating Layer conv5_p
I0326 21:52:10.880211 22557 net.cpp:425] conv5_p <- conv4_p
I0326 21:52:10.880230 22557 net.cpp:399] conv5_p -> conv5_p
I0326 21:52:10.896149 22557 net.cpp:141] Setting up conv5_p
I0326 21:52:10.896172 22557 net.cpp:148] Top shape: 50 256 7 3 (268800)
I0326 21:52:10.896180 22557 net.cpp:156] Memory required for data: 124710600
I0326 21:52:10.896189 22557 net.cpp:485] Sharing parameters 'conv5' owned by layer 'conv5', param index 0
I0326 21:52:10.896199 22557 net.cpp:485] Sharing parameters 'conv5_b' owned by layer 'conv5', param index 1
I0326 21:52:10.896216 22557 layer_factory.hpp:77] Creating layer relu5_p
I0326 21:52:10.896231 22557 net.cpp:91] Creating Layer relu5_p
I0326 21:52:10.896239 22557 net.cpp:425] relu5_p <- conv5_p
I0326 21:52:10.896251 22557 net.cpp:386] relu5_p -> conv5_p (in-place)
I0326 21:52:10.896544 22557 net.cpp:141] Setting up relu5_p
I0326 21:52:10.896561 22557 net.cpp:148] Top shape: 50 256 7 3 (268800)
I0326 21:52:10.896569 22557 net.cpp:156] Memory required for data: 125785800
I0326 21:52:10.896577 22557 layer_factory.hpp:77] Creating layer pool5_p
I0326 21:52:10.896592 22557 net.cpp:91] Creating Layer pool5_p
I0326 21:52:10.896602 22557 net.cpp:425] pool5_p <- conv5_p
I0326 21:52:10.896612 22557 net.cpp:399] pool5_p -> pool5_p
I0326 21:52:10.896677 22557 net.cpp:141] Setting up pool5_p
I0326 21:52:10.896692 22557 net.cpp:148] Top shape: 50 256 3 1 (38400)
I0326 21:52:10.896699 22557 net.cpp:156] Memory required for data: 125939400
I0326 21:52:10.896706 22557 layer_factory.hpp:77] Creating layer ip6_p
I0326 21:52:10.896723 22557 net.cpp:91] Creating Layer ip6_p
I0326 21:52:10.896730 22557 net.cpp:425] ip6_p <- pool5_p
I0326 21:52:10.896742 22557 net.cpp:399] ip6_p -> ip6_p
I0326 21:52:10.946213 22557 net.cpp:141] Setting up ip6_p
I0326 21:52:10.946233 22557 net.cpp:148] Top shape: 50 2048 (102400)
I0326 21:52:10.946241 22557 net.cpp:156] Memory required for data: 126349000
I0326 21:52:10.946250 22557 net.cpp:485] Sharing parameters 'ip6' owned by layer 'ip6', param index 0
I0326 21:52:10.946260 22557 net.cpp:485] Sharing parameters 'ip6_b' owned by layer 'ip6', param index 1
I0326 21:52:10.946269 22557 layer_factory.hpp:77] Creating layer relu6_p
I0326 21:52:10.946282 22557 net.cpp:91] Creating Layer relu6_p
I0326 21:52:10.946291 22557 net.cpp:425] relu6_p <- ip6_p
I0326 21:52:10.946301 22557 net.cpp:386] relu6_p -> ip6_p (in-place)
I0326 21:52:10.946640 22557 net.cpp:141] Setting up relu6_p
I0326 21:52:10.946660 22557 net.cpp:148] Top shape: 50 2048 (102400)
I0326 21:52:10.946667 22557 net.cpp:156] Memory required for data: 126758600
I0326 21:52:10.946688 22557 layer_factory.hpp:77] Creating layer drop6_p
I0326 21:52:10.946707 22557 net.cpp:91] Creating Layer drop6_p
I0326 21:52:10.946724 22557 net.cpp:425] drop6_p <- ip6_p
I0326 21:52:10.946735 22557 net.cpp:386] drop6_p -> ip6_p (in-place)
I0326 21:52:10.946784 22557 net.cpp:141] Setting up drop6_p
I0326 21:52:10.946799 22557 net.cpp:148] Top shape: 50 2048 (102400)
I0326 21:52:10.946805 22557 net.cpp:156] Memory required for data: 127168200
I0326 21:52:10.946812 22557 layer_factory.hpp:77] Creating layer ip7_p
I0326 21:52:10.946835 22557 net.cpp:91] Creating Layer ip7_p
I0326 21:52:10.946846 22557 net.cpp:425] ip7_p <- ip6_p
I0326 21:52:10.946856 22557 net.cpp:399] ip7_p -> ip7_p
I0326 21:52:11.012539 22557 net.cpp:141] Setting up ip7_p
I0326 21:52:11.012563 22557 net.cpp:148] Top shape: 50 1024 (51200)
I0326 21:52:11.012573 22557 net.cpp:156] Memory required for data: 127373000
I0326 21:52:11.012581 22557 net.cpp:485] Sharing parameters 'ip7' owned by layer 'ip7', param index 0
I0326 21:52:11.012590 22557 net.cpp:485] Sharing parameters 'ip7_b' owned by layer 'ip7', param index 1
I0326 21:52:11.012598 22557 layer_factory.hpp:77] Creating layer relu7_p
I0326 21:52:11.012609 22557 net.cpp:91] Creating Layer relu7_p
I0326 21:52:11.012617 22557 net.cpp:425] relu7_p <- ip7_p
I0326 21:52:11.012627 22557 net.cpp:386] relu7_p -> ip7_p (in-place)
I0326 21:52:11.012826 22557 net.cpp:141] Setting up relu7_p
I0326 21:52:11.012845 22557 net.cpp:148] Top shape: 50 1024 (51200)
I0326 21:52:11.012853 22557 net.cpp:156] Memory required for data: 127577800
I0326 21:52:11.012861 22557 layer_factory.hpp:77] Creating layer drop7_p
I0326 21:52:11.012873 22557 net.cpp:91] Creating Layer drop7_p
I0326 21:52:11.012881 22557 net.cpp:425] drop7_p <- ip7_p
I0326 21:52:11.012894 22557 net.cpp:386] drop7_p -> ip7_p (in-place)
I0326 21:52:11.012934 22557 net.cpp:141] Setting up drop7_p
I0326 21:52:11.012948 22557 net.cpp:148] Top shape: 50 1024 (51200)
I0326 21:52:11.012956 22557 net.cpp:156] Memory required for data: 127782600
I0326 21:52:11.012964 22557 layer_factory.hpp:77] Creating layer ip8_p
I0326 21:52:11.012979 22557 net.cpp:91] Creating Layer ip8_p
I0326 21:52:11.012987 22557 net.cpp:425] ip8_p <- ip7_p
I0326 21:52:11.013000 22557 net.cpp:399] ip8_p -> feat_p
I0326 21:52:11.029594 22557 net.cpp:141] Setting up ip8_p
I0326 21:52:11.029615 22557 net.cpp:148] Top shape: 50 512 (25600)
I0326 21:52:11.029623 22557 net.cpp:156] Memory required for data: 127885000
I0326 21:52:11.029631 22557 net.cpp:485] Sharing parameters 'ip8' owned by layer 'ip8', param index 0
I0326 21:52:11.029640 22557 net.cpp:485] Sharing parameters 'ip8_b' owned by layer 'ip8', param index 1
I0326 21:52:11.029649 22557 layer_factory.hpp:77] Creating layer loss
I0326 21:52:11.029664 22557 net.cpp:91] Creating Layer loss
…
