…
weight_decay: 0.0002
stepsize: 32000
snapshot: 5000
snapshot_prefix: "ZF_reid"
solver_mode: GPU
device_id: 0
net: "net_simple.prototxt"
test_initialization: false
I0325 03:28:36.189990 36727 solver.cpp:91] Creating training net from net file: net_simple.prototxt
I0325 03:28:36.190620 36727 net.cpp:49] Initializing net from parameters: 
name: "CaffeNet"
state {
  phase: TRAIN
}
layer {
  name: "data"
  type: "Data"
  top: "data"
  top: "label"
  include {
    phase: TRAIN
  }
  data_param {
    source: "lmdb"
    batch_size: 128
    backend: LMDB
  }
}
layer {
  name: "conv1"
  type: "Convolution"
  bottom: "data"
  top: "conv1"
  convolution_param {
    num_output: 96
    pad: 3
    kernel_size: 7
    stride: 2
  }
}
layer {
  name: "relu1"
  type: "ReLU"
  bottom: "conv1"
  top: "conv1"
}
layer {
  name: "norm1"
  type: "LRN"
  bottom: "conv1"
  top: "norm1"
  lrn_param {
    local_size: 3
    alpha: 5e-05
    beta: 0.75
    norm_region: WITHIN_CHANNEL
    engine: CAFFE
  }
}
layer {
  name: "pool1"
  type: "Pooling"
  bottom: "norm1"
  top: "pool1"
  pooling_param {
    pool: MAX
    kernel_size: 3
    stride: 2
    pad: 1
  }
}
layer {
  name: "conv2"
  type: "Convolution"
  bottom: "pool1"
  top: "conv2"
  convolution_param {
    num_output: 256
    pad: 2
    kernel_size: 5
    stride: 2
  }
}
layer {
  name: "relu2"
  type: "ReLU"
  bottom: "conv2"
  top: "conv2"
}
layer {
  name: "norm2"
  type: "LRN"
  bottom: "conv2"
  top: "norm2"
  lrn_param {
    local_size: 3
    alpha: 5e-05
    beta: 0.75
    norm_region: WITHIN_CHANNEL
    engine: CAFFE
  }
}
layer {
  name: "pool2"
  type: "Pooling"
  bottom: "norm2"
  top: "pool2"
  pooling_param {
    pool: MAX
    kernel_size: 3
    stride: 2
    pad: 1
  }
}
layer {
  name: "conv3"
  type: "Convolution"
  bottom: "pool2"
  top: "conv3"
  convolution_param {
    num_output: 384
    pad: 1
    kernel_size: 3
    stride: 1
  }
}
layer {
  name: "relu3"
  type: "ReLU"
  bottom: "conv3"
  top: "conv3"
}
layer {
  name: "conv4"
  type: "Convolution"
  bottom: "conv3"
  top: "conv4"
  convolution_param {
    num_output: 384
    pad: 1
    kernel_size: 3
    stride: 1
  }
}
layer {
  name: "relu4"
  type: "ReLU"
  bottom: "conv4"
  top: "conv4"
}
layer {
  name: "conv5"
  type: "Convolution"
  bottom: "conv4"
  top: "conv5"
  convolution_param {
    num_output: 256
    pad: 1
    kernel_size: 3
    stride: 1
  }
}
layer {
  name: "relu5"
  type: "ReLU"
  bottom: "conv5"
  top: "conv5"
}
layer {
  name: "fc_embedding"
  type: "InnerProduct"
  bottom: "conv5"
  top: "fc_embedding"
  param {
    lr_mult: 10
    decay_mult: 1
  }
  param {
    lr_mult: 20
    decay_mult: 0
  }
  inner_product_param {
    num_output: 200
    weight_filler {
      type: "xavier"
    }
    bias_filler {
      type: "constant"
      value: 0
    }
  }
}
layer {
  name: "loss"
  type: "SoftmaxWithLoss"
  bottom: "fc_embedding"
  bottom: "label"
  top: "loss"
}
I0325 03:28:36.190721 36727 layer_factory.hpp:77] Creating layer data
I0325 03:28:36.191301 36727 net.cpp:91] Creating Layer data
I0325 03:28:36.191323 36727 net.cpp:399] data -> data
I0325 03:28:36.191413 36727 net.cpp:399] data -> label
I0325 03:28:36.193222 36739 db_lmdb.cpp:38] Opened lmdb lmdb
I0325 03:28:36.206032 36727 data_layer.cpp:41] output data size: 128,3,128,64
I0325 03:28:36.234904 36727 net.cpp:141] Setting up data
I0325 03:28:36.235013 36727 net.cpp:148] Top shape: 128 3 128 64 (3145728)
I0325 03:28:36.235028 36727 net.cpp:148] Top shape: 128 (128)
I0325 03:28:36.235035 36727 net.cpp:156] Memory required for data: 12583424
I0325 03:28:36.235054 36727 layer_factory.hpp:77] Creating layer conv1
I0325 03:28:36.235087 36727 net.cpp:91] Creating Layer conv1
I0325 03:28:36.235100 36727 net.cpp:425] conv1 <- data
I0325 03:28:36.235136 36727 net.cpp:399] conv1 -> conv1
I0325 03:28:36.438015 36727 net.cpp:141] Setting up conv1
I0325 03:28:36.438091 36727 net.cpp:148] Top shape: 128 96 64 32 (25165824)
I0325 03:28:36.438102 36727 net.cpp:156] Memory required for data: 113246720
I0325 03:28:36.438138 36727 layer_factory.hpp:77] Creating layer relu1
I0325 03:28:36.438163 36727 net.cpp:91] Creating Layer relu1
I0325 03:28:36.438175 36727 net.cpp:425] relu1 <- conv1
I0325 03:28:36.438189 36727 net.cpp:386] relu1 -> conv1 (in-place)
I0325 03:28:36.438508 36727 net.cpp:141] Setting up relu1
I0325 03:28:36.438526 36727 net.cpp:148] Top shape: 128 96 64 32 (25165824)
I0325 03:28:36.438535 36727 net.cpp:156] Memory required for data: 213910016
I0325 03:28:36.438544 36727 layer_factory.hpp:77] Creating layer norm1
I0325 03:28:36.438563 36727 net.cpp:91] Creating Layer norm1
I0325 03:28:36.438572 36727 net.cpp:425] norm1 <- conv1
I0325 03:28:36.438583 36727 net.cpp:399] norm1 -> norm1
I0325 03:28:36.438725 36727 net.cpp:141] Setting up norm1
I0325 03:28:36.438742 36727 net.cpp:148] Top shape: 128 96 64 32 (25165824)
I0325 03:28:36.438751 36727 net.cpp:156] Memory required for data: 314573312
I0325 03:28:36.438758 36727 layer_factory.hpp:77] Creating layer pool1
I0325 03:28:36.438776 36727 net.cpp:91] Creating Layer pool1
I0325 03:28:36.438784 36727 net.cpp:425] pool1 <- norm1
I0325 03:28:36.438796 36727 net.cpp:399] pool1 -> pool1
I0325 03:28:36.438846 36727 net.cpp:141] Setting up pool1
I0325 03:28:36.438861 36727 net.cpp:148] Top shape: 128 96 33 17 (6893568)
I0325 03:28:36.438873 36727 net.cpp:156] Memory required for data: 342147584
I0325 03:28:36.438880 36727 layer_factory.hpp:77] Creating layer conv2
I0325 03:28:36.438897 36727 net.cpp:91] Creating Layer conv2
I0325 03:28:36.438906 36727 net.cpp:425] conv2 <- pool1
I0325 03:28:36.438916 36727 net.cpp:399] conv2 -> conv2
I0325 03:28:36.441309 36727 net.cpp:141] Setting up conv2
I0325 03:28:36.441331 36727 net.cpp:148] Top shape: 128 256 17 9 (5013504)
I0325 03:28:36.441340 36727 net.cpp:156] Memory required for data: 362201600
I0325 03:28:36.441354 36727 layer_factory.hpp:77] Creating layer relu2
I0325 03:28:36.441370 36727 net.cpp:91] Creating Layer relu2
I0325 03:28:36.441378 36727 net.cpp:425] relu2 <- conv2
I0325 03:28:36.441388 36727 net.cpp:386] relu2 -> conv2 (in-place)
I0325 03:28:36.441689 36727 net.cpp:141] Setting up relu2
I0325 03:28:36.441709 36727 net.cpp:148] Top shape: 128 256 17 9 (5013504)
I0325 03:28:36.441718 36727 net.cpp:156] Memory required for data: 382255616
I0325 03:28:36.441726 36727 layer_factory.hpp:77] Creating layer norm2
I0325 03:28:36.441738 36727 net.cpp:91] Creating Layer norm2
I0325 03:28:36.441746 36727 net.cpp:425] norm2 <- conv2
I0325 03:28:36.441759 36727 net.cpp:399] norm2 -> norm2
I0325 03:28:36.441871 36727 net.cpp:141] Setting up norm2
I0325 03:28:36.441887 36727 net.cpp:148] Top shape: 128 256 17 9 (5013504)
I0325 03:28:36.441895 36727 net.cpp:156] Memory required for data: 402309632
I0325 03:28:36.441903 36727 layer_factory.hpp:77] Creating layer pool2
I0325 03:28:36.441918 36727 net.cpp:91] Creating Layer pool2
I0325 03:28:36.441928 36727 net.cpp:425] pool2 <- norm2
I0325 03:28:36.441941 36727 net.cpp:399] pool2 -> pool2
I0325 03:28:36.441984 36727 net.cpp:141] Setting up pool2
I0325 03:28:36.441998 36727 net.cpp:148] Top shape: 128 256 9 5 (1474560)
I0325 03:28:36.442006 36727 net.cpp:156] Memory required for data: 408207872
I0325 03:28:36.442014 36727 layer_factory.hpp:77] Creating layer conv3
I0325 03:28:36.442029 36727 net.cpp:91] Creating Layer conv3
I0325 03:28:36.442039 36727 net.cpp:425] conv3 <- pool2
I0325 03:28:36.442050 36727 net.cpp:399] conv3 -> conv3
I0325 03:28:36.445773 36727 net.cpp:141] Setting up conv3
I0325 03:28:36.445796 36727 net.cpp:148] Top shape: 128 384 9 5 (2211840)
I0325 03:28:36.445806 36727 net.cpp:156] Memory required for data: 417055232
I0325 03:28:36.445821 36727 layer_factory.hpp:77] Creating layer relu3
I0325 03:28:36.445832 36727 net.cpp:91] Creating Layer relu3
I0325 03:28:36.445853 36727 net.cpp:425] relu3 <- conv3
I0325 03:28:36.445868 36727 net.cpp:386] relu3 -> conv3 (in-place)
I0325 03:28:36.446070 36727 net.cpp:141] Setting up relu3
I0325 03:28:36.446087 36727 net.cpp:148] Top shape: 128 384 9 5 (2211840)
I0325 03:28:36.446095 36727 net.cpp:156] Memory required for data: 425902592
I0325 03:28:36.446105 36727 layer_factory.hpp:77] Creating layer conv4
I0325 03:28:36.446116 36727 net.cpp:91] Creating Layer conv4
I0325 03:28:36.446125 36727 net.cpp:425] conv4 <- conv3
I0325 03:28:36.446140 36727 net.cpp:399] conv4 -> conv4
I0325 03:28:36.450199 36727 net.cpp:141] Setting up conv4
I0325 03:28:36.450223 36727 net.cpp:148] Top shape: 128 384 9 5 (2211840)
I0325 03:28:36.450232 36727 net.cpp:156] Memory required for data: 434749952
I0325 03:28:36.450244 36727 layer_factory.hpp:77] Creating layer relu4
I0325 03:28:36.450259 36727 net.cpp:91] Creating Layer relu4
I0325 03:28:36.450269 36727 net.cpp:425] relu4 <- conv4
I0325 03:28:36.450279 36727 net.cpp:386] relu4 -> conv4 (in-place)
I0325 03:28:36.450580 36727 net.cpp:141] Setting up relu4
I0325 03:28:36.450598 36727 net.cpp:148] Top shape: 128 384 9 5 (2211840)
I0325 03:28:36.450606 36727 net.cpp:156] Memory required for data: 443597312
I0325 03:28:36.450615 36727 layer_factory.hpp:77] Creating layer conv5
I0325 03:28:36.450633 36727 net.cpp:91] Creating Layer conv5
I0325 03:28:36.450642 36727 net.cpp:425] conv5 <- conv4
I0325 03:28:36.450654 36727 net.cpp:399] conv5 -> conv5
I0325 03:28:36.453677 36727 net.cpp:141] Setting up conv5
I0325 03:28:36.453698 36727 net.cpp:148] Top shape: 128 256 9 5 (1474560)
I0325 03:28:36.453709 36727 net.cpp:156] Memory required for data: 449495552
I0325 03:28:36.453725 36727 layer_factory.hpp:77] Creating layer relu5
I0325 03:28:36.453737 36727 net.cpp:91] Creating Layer relu5
I0325 03:28:36.453745 36727 net.cpp:425] relu5 <- conv5
I0325 03:28:36.453755 36727 net.cpp:386] relu5 -> conv5 (in-place)
I0325 03:28:36.454051 36727 net.cpp:141] Setting up relu5
I0325 03:28:36.454068 36727 net.cpp:148] Top shape: 128 256 9 5 (1474560)
I0325 03:28:36.454077 36727 net.cpp:156] Memory required for data: 455393792
I0325 03:28:36.454085 36727 layer_factory.hpp:77] Creating layer fc_embedding
I0325 03:28:36.454103 36727 net.cpp:91] Creating Layer fc_embedding
I0325 03:28:36.454113 36727 net.cpp:425] fc_embedding <- conv5
I0325 03:28:36.454126 36727 net.cpp:399] fc_embedding -> fc_embedding
I0325 03:28:36.473688 36727 net.cpp:141] Setting up fc_embedding
I0325 03:28:36.473717 36727 net.cpp:148] Top shape: 128 200 (25600)
I0325 03:28:36.473726 36727 net.cpp:156] Memory required for data: 455496192
I0325 03:28:36.473740 36727 layer_factory.hpp:77] Creating layer loss
I0325 03:28:36.473763 36727 net.cpp:91] Creating Layer loss
I0325 03:28:36.473773 36727 net.cpp:425] loss <- fc_embedding
I0325 03:28:36.473783 36727 net.cpp:425] loss <- label
I0325 03:28:36.473795 36727 net.cpp:399] loss -> loss
I0325 03:28:36.473821 36727 layer_factory.hpp:77] Creating layer loss
…
I0325 03:28:36.475055 36727 net.cpp:219] data does not need backward computation.
I0325 03:28:36.475062 36727 net.cpp:261] This network produces output loss
I0325 03:28:36.475081 36727 net.cpp:274] Network initialization done.
I0325 03:28:36.475527 36727 solver.cpp:181] Creating test net (#0) specified by net file: net_simple.prototxt
I0325 03:28:36.475569 36727 net.cpp:313] The NetState phase (1) differed from the phase (0) specified by a rule in layer data
I0325 03:28:36.475704 36727 net.cpp:49] Initializing net from parameters: 
name: "CaffeNet"
state {
  phase: TEST
}
layer {
  name: "conv1"
  type: "Convolution"
  bottom: "data"
  top: "conv1"
  convolution_param {
    num_output: 96
    pad: 3
    kernel_size: 7
    stride: 2
  }
}
layer {
  name: "relu1"
  type: "ReLU"
  bottom: "conv1"
  top: "conv1"
}
layer {
  name: "norm1"
  type: "LRN"
  bottom: "conv1"
  top: "norm1"
  lrn_param {
    local_size: 3
    alpha: 5e-05
    beta: 0.75
    norm_region: WITHIN_CHANNEL
    engine: CAFFE
  }
}
layer {
  name: "pool1"
  type: "Pooling"
  bottom: "norm1"
  top: "pool1"
  pooling_param {
    pool: MAX
    kernel_size: 3
    stride: 2
    pad: 1
  }
}
layer {
  name: "conv2"
  type: "Convolution"
  bottom: "pool1"
  top: "conv2"
  convolution_param {
    num_output: 256
    pad: 2
    kernel_size: 5
    stride: 2
  }
}
layer {
  name: "relu2"
  type: "ReLU"
  bottom: "conv2"
  top: "conv2"
}
layer {
  name: "norm2"
  type: "LRN"
  bottom: "conv2"
  top: "norm2"
  lrn_param {
    local_size: 3
    alpha: 5e-05
    beta: 0.75
    norm_region: WITHIN_CHANNEL
    engine: CAFFE
  }
}
layer {
  name: "pool2"
  type: "Pooling"
  bottom: "norm2"
  top: "pool2"
  pooling_param {
    pool: MAX
    kernel_size: 3
    stride: 2
    pad: 1
  }
}
layer {
  name: "conv3"
  type: "Convolution"
  bottom: "pool2"
  top: "conv3"
  convolution_param {
    num_output: 384
    pad: 1
    kernel_size: 3
    stride: 1
  }
}
layer {
  name: "relu3"
  type: "ReLU"
  bottom: "conv3"
  top: "conv3"
}
layer {
  name: "conv4"
  type: "Convolution"
  bottom: "conv3"
  top: "conv4"
  convolution_param {
    num_output: 384
    pad: 1
    kernel_size: 3
    stride: 1
  }
}
layer {
  name: "relu4"
  type: "ReLU"
  bottom: "conv4"
  top: "conv4"
}
layer {
  name: "conv5"
  type: "Convolution"
  bottom: "conv4"
  top: "conv5"
  convolution_param {
    num_output: 256
    pad: 1
    kernel_size: 3
    stride: 1
  }
}
layer {
  name: "relu5"
  type: "ReLU"
  bottom: "conv5"
  top: "conv5"
}
layer {
  name: "fc_embedding"
  type: "InnerProduct"
  bottom: "conv5"
  top: "fc_embedding"
  param {
    lr_mult: 10
    decay_mult: 1
  }
  param {
    lr_mult: 20
    decay_mult: 0
  }
  inner_product_param {
    num_output: 200
    weight_filler {
      type: "xavier"
    }
    bias_filler {
      type: "constant"
      value: 0
    }
  }
}
layer {
  name: "loss"
  type: "SoftmaxWithLoss"
  bottom: "fc_embedding"
  bottom: "label"
  top: "loss"
}
F0325 03:28:36.475742 36727 insert_splits.cpp:29] Unknown bottom blob 'data' (layer 'conv1', bottom index 0)
*** Check failure stack trace: ***
    @     0x7fe85d00edaa  (unknown)
    @     0x7fe85d00ece4  (unknown)
    @     0x7fe85d00e6e6  (unknown)
    @     0x7fe85d011687  (unknown)
    @     0x7fe85d7705fe  caffe::InsertSplits()
    @     0x7fe85d7418bd  caffe::Net<>::Init()
…
